dictionary_lookup/saved_models/gat_128_s10.pt (torch, 86483 bytes, 8 tensors)

layer0_keys.weight f4 [11, 128]
0	0xbe5b8848	-0.21438706
1	0x3f7b1db7	0.98092216
2	0xbee44831	-0.44586328
3	0x3e6b50ed	0.2298009
4	0x3d44bdf1	0.048032705
5	0xbf8c5f4d	-1.0966583
6	0x3e4a808b	0.19775598
7	0xbf60198a	-0.8753897
8	0xbf139289	-0.5764547
9	0xbf9a86b8	-1.2072363
10	0x403986ef	2.8988607
11	0xbed73ee2	-0.42040163
12	0x3fabc51b	1.3419527
13	0x3e283127	0.16425
14	0xbfdf3a17	-1.7439603
15	0x3dd15d21	0.10222841
16	0xbeff0006	-0.49804705
17	0x3fc1ec24	1.5150189
18	0xc005aad5	-2.0885518
19	0xbfcbd819	-1.5925323
20	0xbef26bd0	-0.4734788
21	0xbfab66cb	-1.3390745
22	0x3fa6a739	1.3019782
23	0x3f78241a	0.96930087
24	0xbee70c7b	-0.4512671
25	0x3eeb1772	0.45916325
26	0x3f0a7aef	0.5409383
27	0x3c883b11	0.016629728
28	0x4003e283	2.0607002
29	0xbf9ebec8	-1.2401972
30	0xbfcad67a	-1.5846703
31	0x3f6ce547	0.9253735
32	0xbe862f4c	-0.2620796
33	0x3f1c0d33	0.6095764
34	0xc003d358	-2.0597744
35	0x3d72c838	0.059272975
36	0x3ebcc03d	0.36865416
37	0xbf3f8f1f	-0.7482776
38	0xbf001f06	-0.5004734
39	0x3e1aa92d	0.15103598
40	0x3ee7537a	0.45180875
41	0xbf63c605	-0.8897403
42	0x3d46100a	0.04835514
43	0x3f2d9807	0.678101
44	0x403fe11d	2.9981148
45	0xbf02318b	-0.50856847
46	0xbf6cae32	-0.924533
47	0x3f988230	1.191473
48	0x3e15c207	0.14624797
49	0xbf4b3f4f	-0.79393476
50	0x3e927135	0.28601995
51	0xbfb698f5	-1.4265429
52	0x3f8f6ad0	1.1204472
53	0x3f7d4fc2	0.98949826
54	0x3f7eefe2	0.9958478
55	0xbe68204a	-0.22668567
56	0x3f99cdfd	1.2015988
57	0xba146c5d	-0.00056618993
58	0xbf9c2fa5	-1.220204
59	0x3e2624b4	0.16224939
60	0xbfc2470d	-1.5177933
61	0x3e68ed91	0.22746874
62	0x3f5d59f1	0.86465365
63	0x3fbf96e5	1.4967924
64	0xbff7b1f5	-1.9351183
65	0x3f280d67	0.6564545
66	0xbf74b213	-0.9558422
67	0x3db244d8	0.08704537
68	0xbfbd139b	-1.4771608
69	0xbf5f7c70	-0.8729925
70	0x40111be2	2.2673268
71	0x3e41133c	0.18854994
72	0xbe8b2378	-0.27175498
73	0xbfdae807	-1.7102059
74	0xbe7e12a9	-0.24811806
75	0x3fb7f564	1.4371762
76	0x3f7314ef	0.9495382
77	0x3f9325e9	1.1495944
78	0xbfd54908	-1.6662912
79	0xbec45554	-0.3834635
80	0x3f180e18	0.59396505
81	0xbdafb6a2	-0.08579756
82	0xbe6815f3	-0.22664623
83	0xbf93ef1c	-1.1557345
84	0xbec8dda9	-0.39231613
85	0xc0220f7e	-2.5321956
86	0x3e4b10c7	0.19830619
87	0x3f8987eb	1.0744604
88	0xbd541a09	-0.05178264
89	0x3d8d0235	0.068851866
90	0x3f8884bc	1.0665507
91	0xbf36eb5f	-0.714529
92	0x400da16a	2.212977
93	0x3f696b7e	0.91179645
94	0xc00c4b4e	-2.1920962
95	0xbf4e8853	-0.80676764
96	0x3f04a97b	0.51821107
97	0xbf35a437	-0.70953697
98	0xbf73e06c	-0.95264316
99	0x3f711b2a	0.94182074
100	0xc00d9660	-2.2123032
101	0xc00596b6	-2.0873237
102	0x3f7d5d24	0.98970246
103	0xbf6763cf	-0.9038667
104	0x400b2ef3	2.1747406
105	0x3f1043d5	0.56353503
106	0xbff202a1	-1.8907052
107	0x3fcf5f67	1.620099
108	0xc0102f76	-2.2528968
109	0x3ff63c32	1.923712
110	0x3f383814	0.7196057
111	0x3ed1c2e4	0.40969002
112	0x3f3b9d4c	0.7328689
113	0xbf8476e0	-1.0348778
114	0xbeb25138	-0.3482759
115	0xc036fa8a	-2.8590417
116	0xbfe03a42	-1.7517779
117	0xc03ceb67	-2.9518678
118	0xbe55be61	-0.20873405
119	0xbc86e09f	-0.01646453
120	0x3ebce7b7	0.36895534
121	0xbfd33a77	-1.6502217
122	0xbf8d3cc8	-1.1034174
123	0x3f76db8b	0.96428746
124	0xbf3114cd	-0.69172364
125	0x3eeb2ebe	0.459341
126	0xbf95fb85	-1.1717383
127	0x3f955aca	1.1668332
128	0xbf29359d	-0.6609743
129	0xbe0eeca6	-0.13957462
130	0x3fc602b6	1.5469577
131	0x3fe84af8	1.8147879
132	0x3de6c718	0.11268443
133	0x3f3e27f1	0.74279696
134	0x3fafa763	1.3722957
135	0x3dffea07	0.12495809
136	0x3facb009	1.3491222
137	0x3f9761db	1.1826738
138	0x3f84e7c2	1.0383227
139	0x3fc0c31d	1.5059544
140	0x3f04eae1	0.51920897
141	0xbf867f97	-1.0507687
142	0x3c7baffe	0.015361784
143	0xbe8b9f81	-0.2727013
144	0x3f28e05d	0.6596735
145	0x3f08f2c7	0.5349545
146	0x3f230cf0	0.63691616
147	0xbe8e14a9	-0.27750137
148	0x3fbd200c	1.4775405
149	0x3ea19f6d	0.31566945
150	0xbf490b55	-0.78532916
151	0xc01443c5	-2.3166363
152	0x3f84d0a9	1.0376178
153	0x3f56e92d	0.8394955
154	0x3fa9c4ef	1.3263224
155	0x3f9822e9	1.1885654
156	0x3e73e7a8	0.23818839
157	0xbe44b709	-0.19210447
158	0x3f67670c	0.9039161
159	0x3e025212	0.1272662
160	0x40094d6e	2.145351
161	0x3ed4b43b	0.41543755
162	0x3f061b71	0.5238562
163	0xbf8f15b9	-1.1178504
164	0x3fad3222	1.3530924
165	0xbf6015e3	-0.87533396
166	0x3ec51955	0.3849589
167	0xbded6e12	-0.1159326
168	0x3faadb00	1.3348083
169	0x3dc68776	0.09693806
170	0x3f887621	1.066105
171	0xbc3053a9	-0.010762134
172	0x3f9cc87a	1.224868
173	0x3f8d430d	1.1036087
174	0x3f74d5c3	0.95638674
175	0x3e848074	0.25879252
176	0xc009be93	-2.1522567
177	0x3f7bbd3d	0.9833563
178	0x3e6c6369	0.23084797
179	0x3d864869	0.0655678
180	0xbfe54e3a	-1.7914498
181	0xc032a5c7	-2.7913682
182	0x3f509a31	0.8148528
183	0x3f9db265	1.2320067
184	0x3fb802cf	1.4375857
185	0x3f2557e6	0.6458725
186	0x3f07b792	0.5301448
187	0x3fb34793	1.4006218
188	0xbe1d1527	-0.153401
189	0x3f755b70	0.9584265
190	0x3f702cb9	0.9381824
191	0x3ff89408	1.9420176
192	0x3e80dbc1	0.2516766
193	0xbf309bd6	-0.68987787
194	0x3fac2608	1.3449106
195	0xbf9c13ae	-1.2193506
196	0xbe16e850	-0.14737058
197	0x3ed07a4c	0.40718305
198	0xbdcb9331	-0.09940184
199	0x3eacce84	0.3375131
200	0x3e9eb924	0.31000626
201	0x3f7ab80b	0.9793708
202	0xbf6d8d6d	-0.92793924
203	0xbf2d0775	-0.67589504
204	0x3fd7c015	1.6855494
205	0xbdb9c3d3	-0.09070554
206	0x3f85c255	1.044993
207	0x3e9f4717	0.31108925
208	0x3f31d7c5	0.69469863
209	0x3f20e079	0.6284252
210	0xbf2566f8	-0.6461024
211	0x3f842964	1.0325131
212	0xbcc6deb0	-0.024276108
213	0x3fa7b2c5	1.3101431
214	0x40047e1f	2.0701978
215	0x3f030b88	0.5118947
216	0xbd036c26	-0.03208556
217	0xbfe3b323	-1.7789043
218	0xbe9f8f44	-0.3116399
219	0xbf1c2fd3	-0.61010474
220	0x3f47a65f	0.7798824
221	0xc009962e	-2.1497912
222	0x3fb4daa1	1.412922
223	0x3f248372	0.6426307
224	0xbf7722ab	-0.96537274
225	0x3c811d55	0.015761057
226	0x3e5ff8e6	0.21872291
227	0x3fc59c9c	1.5438418
228	0xbdca56c3	-0.0987983
229	0xbe2d078e	-0.16897413
230	0x3ee42b22	0.44564158
231	0xbfe2d9e4	-1.7722745
232	0xbfaa070e	-1.3283403
233	0x3e5c10a6	0.21490726
234	0x3f6808e6	0.9063858
235	0x3cc9a877	0.024616463
236	0x3f86b477	1.0523823
237	0xbd1c400c	-0.038147017
238	0x3f8998a8	1.0749712
239	0x3fad52b2	1.3540862
240	0xbf23df65	-0.6401275
241	0xbf00570d	-0.5013283
242	0x3f5d31ea	0.8640429
243	0xbf832b28	-1.0247545
244	0xbf1c5471	-0.6106635
245	0x3f65f939	0.8983341
246	0x3fa0db94	1.256701
247	0x3f9bb849	1.2165614
248	0x3fcaee8c	1.5854049
249	0x3f2d6f7d	0.6774824
250	0x3f0cb88a	0.54969084
251	0x3e95ef75	0.29284254
252	0x3f6b7021	0.9196797
253	0x3eab37d9	0.33441046
254	0xbd936bd6	-0.071983024
255	0x3ea71ebc	0.32640636

layer0_values.weight f4 [11, 128]
0	0xbf96a595	-1.1769282
1	0x3e2a2387	0.16615115
2	0xbe2298af	-0.15878557
3	0xbf9fd391	-1.248644
4	0xc02c5fa5	-2.6933377
5	0x3e700af2	0.23441675
6	0xc001d2d5	-2.0284932
7	0xbe3fe7ca	-0.18740764
8	0xbf982951	-1.1887609
9	0x3f947855	1.1599222
10	0x3f3feb58	0.7496848
11	0xbf821b3d	-1.0164562
12	0xbfc02980	-1.5012665
13	0xbcb63aeb	-0.022244891
14	0xbfb88ebd	-1.441856
15	0xbfaacdc5	-1.3344046
16	0x3fb526ad	1.4152428
17	0xbf9c72d6	-1.2222545
18	0xbecbc6bd	-0.39800063
19	0xbf792938	-0.9732852
20	0x3e20d2dd	0.15705438
21	0x3ff5cc74	1.9203019
22	0x3fd1579d	1.6354862
23	0x3fac62b9	1.3467628
24	0x400c0fb4	2.1884584
25	0xbfc71303	-1.5552677
26	0xc00c7d63	-2.195153
27	0x3f4d7f62	0.80272496
28	0x3fd3b9c1	1.6541063
29	0x40023228	2.0343113
30	0x3fe07b42	1.7537615
31	0x3fc66bcf	1.550165
32	0xbe65cc1e	-0.22441146
33	0xbfe77abc	-1.808433
34	0x3ff4cbb2	1.9124663
35	0xbf400241	-0.7500344
36	0x3f3a6a5e	0.72818553
37	0x40411aae	3.0172534
38	0xbf28cab4	-0.659343
39	0x3d1c9240	0.038225412
40	0xbf18eaf8	-0.59733534
41	0xbe2d4db8	-0.16924179
42	0x3fee68da	1.8625748
43	0xbf28c4c2	-0.6592523
44	0xbf1c9a1e	-0.61172664
45	0x40078dab	2.1180217
46	0xbe8da744	-0.27666676
47	0x3f470405	0.7774051
48	0x3f9114a6	1.1334426
49	0xbfc136ec	-1.5094886
50	0x3f4bef16	0.7966169
51	0x3f9117c2	1.1335375
52	0xbde1abfa	-0.1101913
53	0xbf20d404	-0.6282351
54	0xbf80de83	-1.0067905
55	0x3f7530bd	0.95777494
56	0x3ea2526c	0.31703508
57	0xbfb3002f	-1.3984431
58	0xbf5b27ca	-0.8560759
59	0xbf82b5b1	-1.0211698
60	0xc00fe371	-2.248257
61	0xbf561517	-0.8362593
62	0xbf60a71e	-0.87755
63	0x3eb3cdf8	0.3511808
64	0x3e9c2173	0.3049427
65	0xbd082538	-0.03323862
66	0xbeff0283	-0.49806604
67	0xbf983472	-1.1891005
68	0xbfa05cd3	-1.2528328
69	0xbf794562	-0.97371495
70	0xbece79c4	-0.40327275
71	0xbfea0f3e	-1.8285902
72	0x3fcff99e	1.6248052
73	0xbf3483c7	-0.70513576
74	0xc02f0773	-2.7348297
75	0x3fd76881	1.6828767
76	0x3f83918a	1.027879
77	0x3fe0bf6a	1.7558415
78	0x3f999542	1.1998675
79	0x401cb3ae	2.4484668
80	0xbff69c68	-1.9266481
81	0xbd4ff9d6	-0.05077537
82	0x3ef63e82	0.48094565
83	0xbf935a0d	-1.1511856
84	0x3e852cae	0.2601065
85	0x3f50e04a	0.8159224
86	0xbfbcac06	-1.4739997
87	0x3ef25948	0.4733374
88	0x3eb92c57	0.3616664
89	0x3eb44293	0.35207042
90	0x3e37dcef	0.17955373
91	0xbd0dbb67	-0.03460255
92	0xbf97dedd	-1.1864887
93	0xbd8680f1	-0.06567562
94	0x3e2cdcd2	0.16881111
95	0xbdf7f239	-0.12106747
96	0xbf64ff9e	-0.8945254
97	0x40009390	2.0090065
98	0xbf1f7bb2	-0.6229812
99	0xbe33c629	-0.17556061
100	0xbf329f78	-0.6977458
101	0xbb666ba9	-0.0035159385
102	0x3fa6a315	1.3018519
103	0xbfb7b317	-1.4351529
104	0x3cb10f13	0.021613633
105	0xbf7a5bcd	-0.97796327
106	0x3f551d04	0.832474
107	0xbe362cf9	-0.17790593
108	0xbf3bc5f7	-0.73348945
109	0xbff61a6a	-1.9226811
110	0x3fdbce3d	1.7172314
111	0x3ea46e0e	0.32115215
112	0xbfcd3841	-1.6032792
113	0x3fb13af5	1.3846117
114	0x3f0d3d3a	0.5517155
115	0xbf7d65d3	-0.98983496
116	0x3ea3058a	0.31840163
117	0x3fb1fd2e	1.3905389
118	0x4017c54b	2.3714168
119	0xbf8b8a82	-1.0901644
120	0xbf98fe04	-1.195252
121	0x3f5979d6	0.8495153
122	0xbf243de3	-0.6415693
123	0xbecce32d	-0.4001707
124	0xbfa64bc5	-1.2991873
125	0xbfa2dd6e	-1.2723825
126	0xbff34d76	-1.9008014
127	0xbf9ae67c	-1.2101588
128	0xbf745652	-0.95444214
129	0xbf4bcfac	-0.7961376
130	0xbf93b9a0	-1.1541023
131	0xbe97a107	-0.29615042
132	0x3e95df88	0.29272103
133	0xbfe03f0d	-1.7519242
134	0x401761c8	2.365343
135	0x3f7d7320	0.9900379
136	0x3f27915d	0.6545618
137	0x3f9e39b2	1.2361357
138	0xbf2b7d85	-0.669884
139	0x3e3471a8	0.17621481
140	0x3e4c3347	0.19941436
141	0x3f935e6f	1.1513194
142	0x3fc67228	1.5503588
143	0x3fca4249	1.5801479
144	0xbe9e561c	-0.3092507
145	0xbf5b1270	-0.8557501
146	0xbe884e72	-0.2662235
147	0xbff2b039	-1.8960029
148	0x3edab1f3	0.4271389
149	0xbe2cde21	-0.1688161
150	0x3f3f89a4	0.748194
151	0xbfccf8cc	-1.6013427
152	0xbf0880ac	-0.5332134
153	0x3f8b07d0	1.0861759
154	0xbe7f8565	-0.2495323
155	0xbfdc4521	-1.7208596
156	0xbdc5d5d7	-0.09659927
157	0xbfe334ba	-1.7750466
158	0x3fe12c18	1.7591581
159	0x3f81f04f	1.0151461
160	0x3f72f405	0.94903594
161	0xbf1f7cd9	-0.6229988
162	0xbeb2a4de	-0.3489141
163	0x3ed025e0	0.40653896
164	0xbea81d51	-0.32834867
165	0xbfc4d82f	-1.5378474
166	0x3d87220d	0.065982915
167	0xbfa92727	-1.3215073
168	0xbffb4c57	-1.9632672
169	0xc0061cf8	-2.095518
170	0x3f457124	0.77125764
171	0x3f5cd108	0.86256456
172	0x3ee2dec9	0.44310597
173	0xbf99cfa1	-1.2016488
174	0xbf59600a	-0.8491217
175	0x3f4c7cdb	0.79878014
176	0xbe75ed73	-0.24016361
177	0xbf8f7de7	-1.1210297
178	0x3f8b54ce	1.0885255
179	0xbf247785	-0.6424487
180	0x3ef5d961	0.4801741
181	0xc008fdeb	-2.140498
182	0xbf394bdf	-0.72381395
183	0xbc15f2e7	-0.009152151
184	0xbfa75dfc	-1.3075557
185	0x3f1cf83f	0.61316293
186	0xbe7ebcbb	-0.24876682
187	0xbfbd6dff	-1.4799193
188	0xbd1801c2	-0.03711105
189	0x3e9de003	0.3083497
190	0x3f1055a7	0.56380695
191	0x3f238118	0.63868856
192	0xbf9a656e	-1.2062204
193	0xc011b6ba	-2.2767777
194	0xbf009c02	-0.5023805
195	0xc014ee47	-2.3270433
196	0x3f37ef00	0.7184906
197	0xbfaa2c6e	-1.3294809
198	0xbf859f92	-1.0439322
199	0x3fae0e63	1.359814
200	0x3ed49c35	0.41525427
201	0xbe1cdf3c	-0.15319532
202	0x3f52dd06	0.82368505
203	0xbfee8ac2	-1.8636096
204	0x3ee46057	0.4460475
205	0xbf82d1be	-1.0220258
206	0xbfc828ab	-1.5637411
207	0xbe024b31	-0.12723996
208	0xbf4be446	-0.7964519
209	0xbfcdc8ed	-1.6076943
210	0x3f2b31c2	0.668728
211	0x3f94ab2e	1.161474
212	0x3ffa05ca	1.9533017
213	0xbf536456	-0.82574975
214	0x3f93e419	1.1553985
215	0xbeb11e12	-0.34593254
216	0xbece9918	-0.40351176
217	0xbfbd5eda	-1.4794571
218	0xbec505bc	-0.38480937
219	0xbe1c98d1	-0.1529267
220	0xbf91ed67	-1.1400574
221	0xc00b963f	-2.1810453
222	0xbf507c71	-0.8143988
223	0xbec953c7	-0.3932173
224	0xbf741838	-0.95349455
225	0x3f637f78	0.88866377
226	0x3ea0406d	0.31299153
227	0x3f56c32d	0.83891565
228	0x3e69b1de	0.22821757
229	0xbf028543	-0.5098459
230	0x40028160	2.0391464
231	0x3f196e3b	0.59933823
232	0x40366043	2.8496253
233	0x40295f45	2.6464398
234	0xbffc7d60	-1.9725761
235	0xbf1368a6	-0.57581556
236	0xbe17092d	-0.14749594
237	0x3f9c06af	1.218954
238	0xbf881de7	-1.0634125
239	0xbf313061	-0.69214445
240	0xbccb9b41	-0.024854304
241	0x3f70acaf	0.94013494
242	0x401f2c19	2.4870665
243	0xbfd710ed	-1.680204
244	0xc02ce803	-2.7016609
245	0xbf70ad3f	-0.9401435
246	0xbf5f96e6	-0.8733963
247	0x3f5440c6	0.82911336
248	0x3cf229b2	0.029560897
249	0x4088402a	4.2578325
250	0x3ee0c5d0	0.4390092
251	0x403ab265	2.9171383
252	0x3ec72276	0.3889348
253	0x3ebdb14a	0.37049323
254	0xbd930358	-0.07178372
255	0xbf9568ce	-1.1672609

layers.0.att_src f4 [1, 8, 16]
0	0x3f0b9e89	0.5453878
1	0xbee42308	-0.44557977
2	0x3e403ca5	0.18773134
3	0xbd8df899	-0.06932182
4	0xbf103444	-0.5632975
5	0xbe3931e3	-0.18085437
6	0xbe81fcfe	-0.2538833
7	0xbedb8378	-0.4287374
8	0x3eedbcd5	0.4643313
9	0x3f0412ce	0.51591194
10	0x3ebfa14a	0.3742774
11	0xbeec868e	-0.46196407
12	0xbdcd1b3f	-0.100149624
13	0xbdf58bc8	-0.11989552
14	0xbea94592	-0.3306089
15	0xbf13cccb	-0.57734364
16	0xbe97b636	-0.29631203
17	0xbea6a290	-0.325459
18	0xbe6521ac	-0.22376126
19	0x3de2a848	0.11067253
20	0xbeb74117	-0.35791847
21	0xbf05e423	-0.52301234
22	0x3eba4c80	0.3638649
23	0xbd67745d	-0.056507457
24	0x3edee5b1	0.43534616
25	0x3edc215c	0.429942
26	0xbec5b3c4	-0.38613713
27	0xbdad6424	-0.08466366
28	0x3d673728	0.056449085
29	0xbc8c35b6	-0.017115455
30	0x3ef4fe2d	0.4785017
31	0xbdda57be	-0.10661267
32	0xbdc6d657	-0.09708851
33	0x3ec7b369	0.39004067
34	0x3e9eb6eb	0.3099893
35	0xbe1ab1db	-0.15106909
36	0xbdf3d97a	-0.11906715
37	0xbe6d966e	-0.23201916
38	0x3e53171c	0.20614284
39	0x3e37eb37	0.17960821
40	0xbeec07f6	-0.46099824
41	0x3f0a1bfc	0.5394895
42	0xbec6c048	-0.38818574
43	0xbeafe508	-0.34354424
44	0xbe81cd32	-0.25351864
45	0xbeae2dc7	-0.340193
46	0xbf1c0d79	-0.6095806
47	0xbe8988be	-0.26862139
48	0xbeb976f4	-0.36223567
49	0xbe7278b4	-0.23678857
50	0xbe1a53be	-0.15071008
51	0xbf15a0cd	-0.5844849
52	0x3edbc34d	0.4292244
53	0xbe04902b	-0.1294562
54	0xbf2e900f	-0.68188566
55	0xbeb2c158	-0.34913135
56	0xbd6ca9c8	-0.057779104
57	0x3e52b914	0.20578414
58	0x3eeddd3c	0.4645785
59	0xbf3ef33d	-0.745899
60	0x3eaec885	0.3413736
61	0x3e012184	0.12610441
62	0x3ebc852c	0.36820352
63	0x3e8f77bf	0.28021047
64	0x3eaa4dc6	0.3326246
65	0xbd8a14af	-0.06742226
66	0x3f0aef83	0.54271716
67	0x3ee91492	0.45523506
68	0x3f1b3504	0.6062777
69	0x3cc9cfc0	0.024635196
70	0x3e769950	0.24081922
71	0x3c742c22	0.0149031
72	0xbe1cdf15	-0.15319474
73	0xbe8e214b	-0.27759776
74	0x3f0c6e19	0.54855496
75	0x3e669b82	0.22520259
76	0xbed6635c	-0.4187268
77	0x3c427c65	0.011870478
78	0x3ef426cb	0.47685847
79	0x3e849af9	0.25899485
80	0x3d8f1949	0.06987245
81	0x3e940e53	0.2891718
82	0xbf01224c	-0.5044296
83	0xbe30fbe3	-0.17283587
84	0x3e42acfb	0.190113
85	0xbe924a9b	-0.28572544
86	0xbe344cd1	-0.17607428
87	0xbefb27d4	-0.49053824
88	0x3e2bfd69	0.16795887
89	0xbea03bac	-0.31295526
90	0x3e8712c0	0.26381493
91	0xbdd425f4	-0.103588015
92	0xbebf0a86	-0.37312716
93	0xbea2696b	-0.31721053
94	0xbe868bbd	-0.26278487
95	0xbe97446e	-0.29544395
96	0xbf09996c	-0.5374973
97	0xbc7d14c1	-0.015446843
98	0x3d7f707c	0.062363133
99	0xbc83e161	-0.01609868
100	0xbc8589af	-0.016301004
101	0xbdca0f43	-0.09866192
102	0x3f162e83	0.5866472
103	0xbf17285a	-0.59045947
104	0xbebe2f54	-0.37145483
105	0xbeb6ae5b	-0.35679898
106	0xbd902c49	-0.07039697
107	0x3eb4feca	0.3535064
108	0x3c3ce9b3	0.011530328
109	0xbe7962f0	-0.24354148
110	0xbe2b14cc	-0.16707152
111	0x3f050b44	0.51970315
112	0xbe031573	-0.12801151
113	0xbdea4a36	-0.11439936
114	0x3e984b03	0.2974473
115	0xbd8a925c	-0.06766197
116	0x3f0b455f	0.54402727
117	0xbdccb7c8	-0.09995991
118	0x3e244a34	0.16043931
119	0x3f133bf0	0.5751333
120	0x3ee78c22	0.452241
121	0xbe80231e	-0.25026792
122	0x3eb9593f	0.36200902
123	0x3db43cf4	0.088006884
124	0x3c2a7718	0.010404371
125	0xbd01ad0f	-0.031659182
126	0xbecca784	-0.39971554
127	0x3e0c3b7a	0.13694564

layers.0.att_dst f4 [1, 8, 16]
0	0x3f175c2b	0.5912501
1	0xbccbf9dd	-0.024899418
2	0xbf019b2b	-0.5062739
3	0x3cf3ce52	0.029761467
4	0x3e10e70f	0.14150642
5	0x3eef319e	0.46717542
6	0xbedb7e64	-0.42869866
7	0xbf16b2cc	-0.5886657
8	0x3ef59773	0.4796711
9	0x3e459087	0.19293414
10	0xbe738bfb	-0.23783867
11	0xbecfcf8d	-0.40588036
12	0xbf50a628	-0.81503534
13	0xbe20fbff	-0.15721129
14	0x3e6eb8c5	0.23312671
15	0xbe977740	-0.29583168
16	0x3da0086f	0.078141086
17	0x3e6ed7cd	0.23324509
18	0xbedf2777	-0.43584797
19	0xbef06211	-0.4694982
20	0x3edd9996	0.4328124
21	0xbeea4f7d	-0.4576377
22	0x3efa80a0	0.48926258
23	0x3f168ad4	0.58805585
24	0xbd62129b	-0.055193525
25	0x3dfa2f1a	0.12216015
26	0x3ea9a7af	0.33135745
27	0xbd9306d9	-0.071790405
28	0xbe92f4fb	-0.2870253
29	0xbd43f71b	-0.04784308
30	0xbd0d1f83	-0.03445388
31	0x3e3de0ae	0.1854274
32	0x3e6b577e	0.22982594
33	0x3f5afa7c	0.8553846
34	0x3ec1ca68	0.37849736
35	0xbe54cbd2	-0.20780876
36	0xbe4de9b0	-0.20108676
37	0x3f1367e9	0.5758043
38	0x3f09551e	0.53645504
39	0x3e41f32c	0.18940419
40	0xbeb2480b	-0.3482059
41	0x3d30ec53	0.043194126
42	0xbef60cdd	-0.4805669
43	0xbf1dc209	-0.616242
44	0x3f09b3b7	0.5378985
45	0x3d7bee44	0.061506525
46	0x3cd323e2	0.025773946
47	0x3e9a55cc	0.30143583
48	0xbadc2186	-0.0016794659
49	0x3cb45966	0.022015285
50	0xbf244e85	-0.6418231
51	0xbe04804d	-0.12939568
52	0xbe95c2c4	-0.29250157
53	0xbe9de36f	-0.3083758
54	0x3e9fee88	0.31236672
55	0x3aa2a51f	0.0012408829
56	0xbd162b44	-0.036662355
57	0xbe742744	-0.23843104
58	0x3e64fee0	0.22362852
59	0x3eaa9091	0.3331342
60	0xbe9ef5e6	-0.3104698
61	0x3e8a77d5	0.2704455
62	0x3e58d7e1	0.21176101
63	0x3eb92f42	0.36168867
64	0xbe74b6b5	-0.23897822
65	0xbee765a0	-0.4519472
66	0x3ea6fbd8	0.32614017
67	0x3daee784	0.08540252
68	0xbd061ed8	-0.03274426
69	0xbedf068b	-0.4355968
70	0xbf1635da	-0.5867592
71	0x3ecafb53	0.3964487
72	0xbf273c9e	-0.6532687
73	0xbee7c2b4	-0.45265734
74	0xbef2b912	-0.47406822
75	0x3e63a907	0.22232448
76	0x3d71a76c	0.058997557
77	0xbe396719	-0.18105735
78	0x3e1c8b29	0.1528746
79	0xbdac7afc	-0.08421895
80	0x3ee72ec3	0.45152864
81	0xbed47b75	-0.4150044
82	0xbed57598	-0.4169128
83	0x3ebf172d	0.3732237
84	0xbee82b40	-0.45345497
85	0x3e45bae9	0.19309582
86	0xbe87296c	-0.2639879
87	0x3c256d09	0.010096797
88	0xbee6cf19	-0.45079878
89	0xbd9bbf60	-0.07604861
90	0x3e30171e	0.17196319
91	0xbe7f286d	-0.24917765
92	0x3ef5390e	0.47895092
93	0xbe91a0f7	-0.2844312
94	0xbedfbd8d	-0.43699303
95	0xbedc26e4	-0.4299842
96	0xbe1e830f	-0.15479682
97	0x3df9c718	0.12196177
98	0xbe0c4fc3	-0.13702302
99	0xbef2bc9f	-0.4740953
100	0x3ec45445	0.38345543
101	0x3e5d87a5	0.21633776
102	0x3e1fddab	0.15611903
103	0x3e8fcbfe	0.2808532
104	0xbd15db10	-0.036585867
105	0x3ea734be	0.32657427
106	0xbcb74ebf	-0.022376416
107	0x3e77aeb9	0.24187745
108	0xbd2d65fd	-0.04233359
109	0x3ed9f6c7	0.4257109
110	0x3e5eb66c	0.21749276
111	0xbe2bc6c2	-0.16775039
112	0x3ed121dd	0.40846148
113	0x3ea7634d	0.32692948
114	0xbefbcdfd	-0.49180594
115	0x3e7dce0f	0.24785636
116	0x3ed3b143	0.41346177
117	0x3f05ed00	0.5231476
118	0x3eccb778	0.39983726
119	0x3f09c872	0.5382148
120	0x3f064ac3	0.5245783
121	0xbf3e9daa	-0.74459326
122	0xbe09431c	-0.13404506
123	0xbecc8bd4	-0.3995043
124	0x3f23d54e	0.6399735
125	0x3e0f3ed8	0.13988817
126	0xbdf32074	-0.11871424
127	0x3dd5f31c	0.1044676

layers.0.bias f4 [128]
0	0x3d699d0a	0.05703453
1	0x3cb396b5	0.021922449
2	0xbc4c2715	-0.01246049
3	0x3b82f714	0.003996739
4	0xbbc831f2	-0.0061094696
5	0x3cf4092d	0.029789532
6	0xbd35c1cc	-0.044374272
7	0xbde016a8	-0.10941821
8	0x3db99529	0.09061653
9	0xbc19f67a	-0.0093971435
10	0x3ccad7b1	0.024761053
11	0xbd08dfc1	-0.033416513
12	0xbd342e09	-0.043989215
13	0xbc9a93f4	-0.018869378
14	0xbc0729d3	-0.008249718
15	0xbcad72fd	-0.021172995
16	0x3b090e76	0.002091316
17	0xbd9b4110	-0.07580769
18	0xbd503e20	-0.050840497
19	0x3ca6869e	0.020327862
20	0xbd2821fe	-0.041048042
21	0xbdcfe615	-0.101513065
22	0xbc45f2c7	-0.012081808
23	0x3baf76e9	0.0053547514
24	0xbc932cfd	-0.017965788
25	0x3cbaeb12	0.022817168
26	0xbca5e629	-0.02025135
27	0xbbee518f	-0.007272906
28	0xbb598174	-0.0033188732
29	0xbc80b7ce	-0.015712645
30	0xbcb6c887	-0.022312416
31	0x3b799b1a	0.0038086833
32	0x3c90bacb	0.017667195
33	0xbbf30a6a	-0.007417013
34	0x3cac5fe0	0.02104181
35	0xbd1412d3	-0.036150765
36	0x3ac68497	0.0015145716
37	0x3cdea85c	0.02717989
38	0x3b4bd49e	0.0031102072
39	0xbc7c3222	-0.015392812
40	0xbc65536f	-0.013996943
41	0x3ae5091e	0.0017474031
42	0x3c1cbd16	0.009566566
43	0x3d2b2f4d	0.041793156
44	0x39e0247d	0.00042751795
45	0x3c3c659d	0.011498836
46	0x3d046e8b	0.032331984
47	0x3d552b07	0.052042987
48	0x3e2182c7	0.15772544
49	0x3c35fd22	0.011107715
50	0x3e14fa47	0.14548598
51	0x3ecd3608	0.40080285
52	0x3d98b3a2	0.07456137
53	0x3d7caf7e	0.0616908
54	0x3e9d564c	0.30729902
55	0x3e01df91	0.1268294
56	0xbcec1857	-0.0288202
57	0xbcbcb7aa	-0.023036797
58	0xbe2354f5	-0.15950377
59	0x3ee8364d	0.45353928
60	0xbc006a9a	-0.007837916
61	0x3b83341f	0.004004016
62	0xbc744810	-0.014909759
63	0xbd9c393a	-0.076281026
64	0xbce690f0	-0.028145283
65	0x3c78d50e	0.015187515
66	0x3d3e35e7	0.046438124
67	0xbbd7a4e3	-0.0065809353
68	0x3c97fed0	0.018554121
69	0x3b525608	0.0032094736
70	0xbb10cf99	-0.0022096394
71	0x3c437df7	0.011931888
72	0xbd0d013d	-0.03442501
73	0x3af67cbc	0.0018805484
74	0x3cdeb9fe	0.027188297
75	0x3c9b413a	0.018952
76	0x3be685f1	0.00703501
77	0x3c43364e	0.011914803
78	0x3d0b32e5	0.033984084
79	0xbc6c7a5d	-0.014433471
80	0x3a311060	0.0006754454
81	0x3d1fcd32	0.03901405
82	0xbcf51bd0	-0.029920489
83	0xbcaa26ea	-0.020770509
84	0x3d1362ab	0.03598277
85	0xbca6960e	-0.020335224
86	0xbcd23f76	-0.025665026
87	0x3a1a496b	0.0005885574
88	0x3c4c68df	0.012476175
89	0xbc271943	-0.010198894
90	0x3c93c930	0.01804027
91	0x3ca3eedf	0.020011364
92	0xbbac9278	-0.005266484
93	0xbc54b3c3	-0.012982312
94	0x3d00da9e	0.03145849
95	0x3cbd7304	0.023126133
96	0xbe47d439	-0.1951455
97	0xbcb4b157	-0.022057218
98	0x3cab332a	0.02089842
99	0xbc8a7c45	-0.01690496
100	0xbb68b573	-0.0035508543
101	0xbd0c7458	-0.03429064
102	0x3e183f65	0.14867933
103	0xbdecda05	-0.115650214
104	0xbdcee90e	-0.101030454
105	0x3ce66313	0.028123414
106	0xbd1027d9	-0.03519425
107	0xbd507022	-0.05088819
108	0xbc8e9a97	-0.017407699
109	0xbc4be37a	-0.012444371
110	0x3c9bc5b7	0.019015176
111	0xbdebdaeb	-0.11516365
112	0x3d98eec3	0.07467415
113	0x3c73bc32	0.014876412
114	0xbd16b4ec	-0.036793634
115	0xbca5aebd	-0.020224923
116	0xbd4de81b	-0.05027018
117	0x3c81e60a	0.015856761
118	0x3c51296c	0.012766223
119	0xbd987229	-0.07443649
120	0xbc8e4c53	-0.017370379
121	0x3c9ae126	0.018906187
122	0xbd924dd0	-0.07143748
123	0x3d277ee5	0.0408925
124	0xbb8ca71c	-0.004292382
125	0x3c0cdcb6	0.008597543
126	0x3cf87b49	0.030332224
127	0x3b2ae16b	0.00260743

layers.0.lin_src.weight f4 [128, 128]
0	0x3cd7ca88	0.026341692
1	0xbccba62b	-0.024859508
2	0x3dbbcc35	0.09169809
3	0x3d23badf	0.039973136
4	0x3e8114ec	0.25211275
5	0x3d0dfc00	0.034664154
6	0xbd963318	-0.07333964
7	0xbcf45aed	-0.029828513
8	0x3d74e7be	0.05979132
9	0x3d0ee905	0.034890193
10	0x3d8be64a	0.068310335
11	0xbd2ae062	-0.041717894
12	0xbe6f259c	-0.2335419
13	0xbe6b20cb	-0.22961728
14	0x3b653d34	0.0034979107
15	0xbc1521fb	-0.00910234
16	0x3d864d00	0.06557655
17	0x3db53398	0.08847731
18	0x3e3e29ea	0.18570676
19	0x3aeaade3	0.0017904605
20	0xbe816da2	-0.25278956
21	0x3e7ac321	0.24488498
22	0x3e18a6cb	0.14907376
23	0xbc5bec80	-0.013423085
24	0x3e2f6621	0.17128803
25	0x3c6035c3	0.013684693
26	0xbde8a8bf	-0.11360311
27	0x3d3b14d4	0.04567416
28	0x3e272b04	0.16325003
29	0xbd484e3b	-0.04890273
30	0x3c3250c0	0.01088351
31	0xbe5180e6	-0.20459327
32	0xbdcc55c1	-0.09977294
33	0xbcb84bcf	-0.022497086
34	0x3cbc42ce	0.022981074
35	0xbd1f0cb1	-0.038830463
36	0xbd599dd1	-0.05312902
37	0x3db169d2	0.08662762
38	0x3c141258	0.009037577
39	0xbe379da3	-0.17931227
40	0x3e431fbe	0.19055077
41	0x3e000c18	0.12504613
42	0x3cae1452	0.021249924
43	0xbdf0689b	-0.11738702
44	0xbd09509d	-0.033524144
45	0x3cebbf71	0.02877781
46	0x3d5adec7	0.053435113
47	0xbe02e439	-0.12782373
48	0x3dc1536e	0.09439741
49	0x3be10772	0.0068673426
50	0x3e42fae3	0.19041018
51	0x3dc64278	0.09680647
52	0xbd4c78c5	-0.049919862
53	0xbb73c542	-0.0037196432
54	0xbb982aac	-0.0046437588
55	0x3ce9fca2	0.028562848
56	0xbc2a19fd	-0.010382173
57	0x3e410c74	0.18852407
58	0x3ed8cd32	0.42344052
59	0xbda00645	-0.07813696
60	0xbe8e3f5f	-0.27782723
61	0x3d0f0969	0.034921084
62	0xbcbbf9c5	-0.022946248
63	0x3c48e722	0.012262138
64	0xbe5fcf5e	-0.21856448
65	0x3d5e75ec	0.054311678
66	0xbe1a4d88	-0.15068638
67	0xbdb3ae16	-0.08773439
68	0xbc5cfc29	-0.013487854
69	0xbdd20f3b	-0.10256811
70	0xbe0f2f68	-0.13982928
71	0xbddda7c2	-0.10823013
72	0x3e98db16	0.2985465
73	0xbe2b113f	-0.16705798
74	0xbd6e9c90	-0.05825478
75	0xbe606b65	-0.21915968
76	0x3e50f25f	0.20404957
77	0xbbdd6004	-0.0067558307
78	0xbe05ca36	-0.13065419
79	0x3ded551b	0.11588498
80	0xbc882597	-0.016619487
81	0xbe954c9a	-0.29160005
82	0x3d07115a	0.032975532
83	0xbd9fd812	-0.07804884
84	0xbd9c33da	-0.076270774
85	0xbd7c0220	-0.061525464
86	0x3e0ed7c2	0.13949493
87	0xbf0aa7ba	-0.5416218
88	0xbe21666d	-0.15761729
89	0xbe8ab1d6	-0.27088803
90	0x3d556f9a	0.052108385
91	0x3e0f4a80	0.13993263
92	0x3c615a03	0.013754371
93	0xbdc3cb93	-0.09560313
94	0xbe7778c9	-0.2416717
95	0xbdf6fb64	-0.12059668
96	0xbe35ddf6	-0.17760453
97	0x3d705280	0.058672428
98	0xbd4bf6f2	-0.049796052
99	0x3e60d136	0.21954808
100	0xbe2a1743	-0.16610436
101	0xbe32044d	-0.17384453
102	0x3e50fc70	0.20408797
103	0x3d54fb39	0.051997397
104	0x3d546b05	0.051859874
105	0x3d4da10b	0.05020241
106	0x3ddf0ce8	0.108911335
107	0x3dea84ed	0.11451135
108	0x3da82ae1	0.082113035
109	0x3e0a4ece	0.13506624
110	0x3c1c84bc	0.009553131
111	0xbeafc0d9	-0.3432682
112	0xbd61a35d	-0.055087436
113	0x3e8f922d	0.2804121
114	0x3e18da5c	0.14927047
115	0xbd0c84be	-0.03430628
116	0xbcc502d1	-0.024049195
117	0x3e0c751d	0.1371655
118	0x3e010543	0.12599663
119	0xbd8104f5	-0.062997736
120	0x3dc8cf62	0.0980518
121	0x3cbd2472	0.023088668
122	0x3df29a13	0.118457936
123	0x3ce954b6	0.028482776
124	0x3e164eb7	0.14678465
125	0x3e081399	0.13288726
126	0x3ddc797d	0.107653596
127	0xbd69466f	-0.056951936
128	0xbcc47b0f	-0.02398446
129	0xbdffe9f2	-0.124957934
130	0xbdae1960	-0.08500934
131	0xbcb59d48	-0.022169724
132	0x3e9b6c6c	0.30356157
133	0xbd9fc5c8	-0.07801396
134	0x3de722a2	0.112859026
135	0xba7a7237	-0.00095537625
136	0x3e29b6ca	0.16573635
137	0x3da27e54	0.079342514
138	0x3d6fabf7	0.058513608
139	0xbd7d494c	-0.06183748
140	0xbdceaead	-0.100919105
141	0x3d313b91	0.043269698
142	0x3d216621	0.03940404
143	0xbce47d51	-0.027891787
144	0x3db05ab5	0.08611051
145	0x3e78766d	0.24263926
146	0x3c9add01	0.018904211
147	0xbe4974d1	-0.19673468
148	0x3dfce5cb	0.12348517
149	0x3e1e1b88	0.1544019
150	0x3e94df3d	0.29076567
151	0xbe266701	-0.1625023
152	0x3ddfa29a	0.10919686
153	0xbde8f28f	-0.113743894
154	0x3c6d4f70	0.014484271
155	0xbcb19957	-0.021679563
156	0x3df81389	0.12113101
157	0x3c89a7c9	0.016803639
158	0xbd4e3d19	-0.050351236
159	0x3e4fa4a4	0.20277649
160	0x3d4c46bf	0.049872156
161	0xbe87fbf1	-0.26559404
162	0x3e9e5c8f	0.30929992
163	0xbe596d00	-0.21232986
164	0x3dbfce59	0.093655296
165	0x3bf407a8	0.0074472018
166	0x3c9a78b2	0.01885638
167	0xbda773e1	-0.08176399
168	0xbdc39e29	-0.09551651
169	0xbe1acbe7	-0.15116845
170	0xbdd9a0ae	-0.1062635
171	0x3e229ae3	0.15879397
172	0x3e21ca57	0.15799843
173	0x3dd62447	0.10456138
174	0x3e1cab49	0.15299715
175	0xbccbd47d	-0.024881596
176	0xbd319188	-0.04335168
177	0x3da39a78	0.07988447
178	0xbd44b9cc	-0.048028752
179	0xbeb1625f	-0.34645364
180	0xbcd008e6	-0.025394868
181	0xbd572c00	-0.052532196
182	0x3d39cb02	0.04535962
183	0x3e38ef5b	0.18060057
184	0xbdbabc1c	-0.0911791
185	0xbd003cdd	-0.031308044
186	0x3dd8c65e	0.105847105
187	0xbd319753	-0.043357205
188	0xbdd62b26	-0.10457449
189	0x3dc42e06	0.09579091
190	0x3d47bf3e	0.048766367
191	0xbe224e00	-0.15850067
192	0xbbbe89aa	-0.0058147507
193	0xbe4fb300	-0.20283127
194	0xbdb18543	-0.08667996
195	0x3e44567b	0.19173615
196	0xbd2527d4	-0.040321186
197	0xbe9a5445	-0.30142418
198	0xbe2899ba	-0.16464892
199	0xbd1144a8	-0.035465866
200	0x3e1b6fb0	0.15179324
201	0xbe02e42c	-0.12782353
202	0xbe834b3d	-0.2564334
203	0x3e583cdb	0.21116965
204	0x3e24d60e	0.1609728
205	0xbe2fd500	-0.17171097
206	0x3bd69de0	0.006549582
207	0x3e9996c9	0.29997852
208	0xbca4a592	-0.020098481
209	0xbeb5c080	-0.35498428
210	0x3e2d6f07	0.16936885
211	0xbdc685fa	-0.09693523
212	0x3d1a18fb	0.03762148
213	0xbe9b59a0	-0.30341816
214	0xbda8475f	-0.08216738
215	0xbe09f0d8	-0.13470781
216	0x3de1399f	0.109973185
217	0xbe18d54a	-0.14925113
218	0xbbea5872	-0.007151657
219	0xbdcaa408	-0.09894568
220	0xbe338e88	-0.1753484
221	0x3c05f9e5	0.008177255
222	0xbe525151	-0.20538832
223	0xbe30d531	-0.17268826
224	0xbe20c08f	-0.15698455
225	0xbce99a52	-0.028515968
226	0x3dec2fdf	0.11532568
227	0x3e51e1ed	0.2049634
228	0x3db6bd87	0.08922868
229	0xbdffbb4f	-0.12486898
230	0x3d7f0228	0.062257916
231	0xbde9c428	-0.11414367
232	0x3e0a1314	0.1348384
233	0xbdad7a05	-0.08470539
234	0x3d3eb009	0.0465546
235	0x3de0300d	0.10946665
236	0xbc170057	-0.00921639
237	0x3e4d78be	0.2006559
238	0x3e545837	0.20736776
239	0xbe030631	-0.1279533
240	0xbd12f65c	-0.035879478
241	0xbda0e933	-0.07856979
242	0x3e46b245	0.19403942
243	0xbd0385f9	-0.03211019
244	0x3d005f04	0.031340614
245	0xbd84815d	-0.064699866
246	0xbdcb8786	-0.099379584
247	0x3c02bfa8	0.007980265
248	0x3dacfebb	0.084470235
249	0x3ecf7f6f	0.40526912
250	0xbdcd3c3d	-0.10021255
251	0x3e51e3eb	0.204971
252	0xbd2ef8a1	-0.04271758
253	0x3d6445a7	0.05573049
254	0xbd2e2418	-0.04251489
255	0xbe77b3e1	-0.24189712

layers.0.lin_dst.weight f4 [128, 128]
0	0x3cd7ca88	0.026341692
1	0xbccba62b	-0.024859508
2	0x3dbbcc35	0.09169809
3	0x3d23badf	0.039973136
4	0x3e8114ec	0.25211275
5	0x3d0dfc00	0.034664154
6	0xbd963318	-0.07333964
7	0xbcf45aed	-0.029828513
8	0x3d74e7be	0.05979132
9	0x3d0ee905	0.034890193
10	0x3d8be64a	0.068310335
11	0xbd2ae062	-0.041717894
12	0xbe6f259c	-0.2335419
13	0xbe6b20cb	-0.22961728
14	0x3b653d34	0.0034979107
15	0xbc1521fb	-0.00910234
16	0x3d864d00	0.06557655
17	0x3db53398	0.08847731
18	0x3e3e29ea	0.18570676
19	0x3aeaade3	0.0017904605
20	0xbe816da2	-0.25278956
21	0x3e7ac321	0.24488498
22	0x3e18a6cb	0.14907376
23	0xbc5bec80	-0.013423085
24	0x3e2f6621	0.17128803
25	0x3c6035c3	0.013684693
26	0xbde8a8bf	-0.11360311
27	0x3d3b14d4	0.04567416
28	0x3e272b04	0.16325003
29	0xbd484e3b	-0.04890273
30	0x3c3250c0	0.01088351
31	0xbe5180e6	-0.20459327
32	0xbdcc55c1	-0.09977294
33	0xbcb84bcf	-0.022497086
34	0x3cbc42ce	0.022981074
35	0xbd1f0cb1	-0.038830463
36	0xbd599dd1	-0.05312902
37	0x3db169d2	0.08662762
38	0x3c141258	0.009037577
39	0xbe379da3	-0.17931227
40	0x3e431fbe	0.19055077
41	0x3e000c18	0.12504613
42	0x3cae1452	0.021249924
43	0xbdf0689b	-0.11738702
44	0xbd09509d	-0.033524144
45	0x3cebbf71	0.02877781
46	0x3d5adec7	0.053435113
47	0xbe02e439	-0.12782373
48	0x3dc1536e	0.09439741
49	0x3be10772	0.0068673426
50	0x3e42fae3	0.19041018
51	0x3dc64278	0.09680647
52	0xbd4c78c5	-0.049919862
53	0xbb73c542	-0.0037196432
54	0xbb982aac	-0.0046437588
55	0x3ce9fca2	0.028562848
56	0xbc2a19fd	-0.010382173
57	0x3e410c74	0.18852407
58	0x3ed8cd32	0.42344052
59	0xbda00645	-0.07813696
60	0xbe8e3f5f	-0.27782723
61	0x3d0f0969	0.034921084
62	0xbcbbf9c5	-0.022946248
63	0x3c48e722	0.012262138
64	0xbe5fcf5e	-0.21856448
65	0x3d5e75ec	0.054311678
66	0xbe1a4d88	-0.15068638
67	0xbdb3ae16	-0.08773439
68	0xbc5cfc29	-0.013487854
69	0xbdd20f3b	-0.10256811
70	0xbe0f2f68	-0.13982928
71	0xbddda7c2	-0.10823013
72	0x3e98db16	0.2985465
73	0xbe2b113f	-0.16705798
74	0xbd6e9c90	-0.05825478
75	0xbe606b65	-0.21915968
76	0x3e50f25f	0.20404957
77	0xbbdd6004	-0.0067558307
78	0xbe05ca36	-0.13065419
79	0x3ded551b	0.11588498
80	0xbc882597	-0.016619487
81	0xbe954c9a	-0.29160005
82	0x3d07115a	0.032975532
83	0xbd9fd812	-0.07804884
84	0xbd9c33da	-0.076270774
85	0xbd7c0220	-0.061525464
86	0x3e0ed7c2	0.13949493
87	0xbf0aa7ba	-0.5416218
88	0xbe21666d	-0.15761729
89	0xbe8ab1d6	-0.27088803
90	0x3d556f9a	0.052108385
91	0x3e0f4a80	0.13993263
92	0x3c615a03	0.013754371
93	0xbdc3cb93	-0.09560313
94	0xbe7778c9	-0.2416717
95	0xbdf6fb64	-0.12059668
96	0xbe35ddf6	-0.17760453
97	0x3d705280	0.058672428
98	0xbd4bf6f2	-0.049796052
99	0x3e60d136	0.21954808
100	0xbe2a1743	-0.16610436
101	0xbe32044d	-0.17384453
102	0x3e50fc70	0.20408797
103	0x3d54fb39	0.051997397
104	0x3d546b05	0.051859874
105	0x3d4da10b	0.05020241
106	0x3ddf0ce8	0.108911335
107	0x3dea84ed	0.11451135
108	0x3da82ae1	0.082113035
109	0x3e0a4ece	0.13506624
110	0x3c1c84bc	0.009553131
111	0xbeafc0d9	-0.3432682
112	0xbd61a35d	-0.055087436
113	0x3e8f922d	0.2804121
114	0x3e18da5c	0.14927047
115	0xbd0c84be	-0.03430628
116	0xbcc502d1	-0.024049195
117	0x3e0c751d	0.1371655
118	0x3e010543	0.12599663
119	0xbd8104f5	-0.062997736
120	0x3dc8cf62	0.0980518
121	0x3cbd2472	0.023088668
122	0x3df29a13	0.118457936
123	0x3ce954b6	0.028482776
124	0x3e164eb7	0.14678465
125	0x3e081399	0.13288726
126	0x3ddc797d	0.107653596
127	0xbd69466f	-0.056951936
128	0xbcc47b0f	-0.02398446
129	0xbdffe9f2	-0.124957934
130	0xbdae1960	-0.08500934
131	0xbcb59d48	-0.022169724
132	0x3e9b6c6c	0.30356157
133	0xbd9fc5c8	-0.07801396
134	0x3de722a2	0.112859026
135	0xba7a7237	-0.00095537625
136	0x3e29b6ca	0.16573635
137	0x3da27e54	0.079342514
138	0x3d6fabf7	0.058513608
139	0xbd7d494c	-0.06183748
140	0xbdceaead	-0.100919105
141	0x3d313b91	0.043269698
142	0x3d216621	0.03940404
143	0xbce47d51	-0.027891787
144	0x3db05ab5	0.08611051
145	0x3e78766d	0.24263926
146	0x3c9add01	0.018904211
147	0xbe4974d1	-0.19673468
148	0x3dfce5cb	0.12348517
149	0x3e1e1b88	0.1544019
150	0x3e94df3d	0.29076567
151	0xbe266701	-0.1625023
152	0x3ddfa29a	0.10919686
153	0xbde8f28f	-0.113743894
154	0x3c6d4f70	0.014484271
155	0xbcb19957	-0.021679563
156	0x3df81389	0.12113101
157	0x3c89a7c9	0.016803639
158	0xbd4e3d19	-0.050351236
159	0x3e4fa4a4	0.20277649
160	0x3d4c46bf	0.049872156
161	0xbe87fbf1	-0.26559404
162	0x3e9e5c8f	0.30929992
163	0xbe596d00	-0.21232986
164	0x3dbfce59	0.093655296
165	0x3bf407a8	0.0074472018
166	0x3c9a78b2	0.01885638
167	0xbda773e1	-0.08176399
168	0xbdc39e29	-0.09551651
169	0xbe1acbe7	-0.15116845
170	0xbdd9a0ae	-0.1062635
171	0x3e229ae3	0.15879397
172	0x3e21ca57	0.15799843
173	0x3dd62447	0.10456138
174	0x3e1cab49	0.15299715
175	0xbccbd47d	-0.024881596
176	0xbd319188	-0.04335168
177	0x3da39a78	0.07988447
178	0xbd44b9cc	-0.048028752
179	0xbeb1625f	-0.34645364
180	0xbcd008e6	-0.025394868
181	0xbd572c00	-0.052532196
182	0x3d39cb02	0.04535962
183	0x3e38ef5b	0.18060057
184	0xbdbabc1c	-0.0911791
185	0xbd003cdd	-0.031308044
186	0x3dd8c65e	0.105847105
187	0xbd319753	-0.043357205
188	0xbdd62b26	-0.10457449
189	0x3dc42e06	0.09579091
190	0x3d47bf3e	0.048766367
191	0xbe224e00	-0.15850067
192	0xbbbe89aa	-0.0058147507
193	0xbe4fb300	-0.20283127
194	0xbdb18543	-0.08667996
195	0x3e44567b	0.19173615
196	0xbd2527d4	-0.040321186
197	0xbe9a5445	-0.30142418
198	0xbe2899ba	-0.16464892
199	0xbd1144a8	-0.035465866
200	0x3e1b6fb0	0.15179324
201	0xbe02e42c	-0.12782353
202	0xbe834b3d	-0.2564334
203	0x3e583cdb	0.21116965
204	0x3e24d60e	0.1609728
205	0xbe2fd500	-0.17171097
206	0x3bd69de0	0.006549582
207	0x3e9996c9	0.29997852
208	0xbca4a592	-0.020098481
209	0xbeb5c080	-0.35498428
210	0x3e2d6f07	0.16936885
211	0xbdc685fa	-0.09693523
212	0x3d1a18fb	0.03762148
213	0xbe9b59a0	-0.30341816
214	0xbda8475f	-0.08216738
215	0xbe09f0d8	-0.13470781
216	0x3de1399f	0.109973185
217	0xbe18d54a	-0.14925113
218	0xbbea5872	-0.007151657
219	0xbdcaa408	-0.09894568
220	0xbe338e88	-0.1753484
221	0x3c05f9e5	0.008177255
222	0xbe525151	-0.20538832
223	0xbe30d531	-0.17268826
224	0xbe20c08f	-0.15698455
225	0xbce99a52	-0.028515968
226	0x3dec2fdf	0.11532568
227	0x3e51e1ed	0.2049634
228	0x3db6bd87	0.08922868
229	0xbdffbb4f	-0.12486898
230	0x3d7f0228	0.062257916
231	0xbde9c428	-0.11414367
232	0x3e0a1314	0.1348384
233	0xbdad7a05	-0.08470539
234	0x3d3eb009	0.0465546
235	0x3de0300d	0.10946665
236	0xbc170057	-0.00921639
237	0x3e4d78be	0.2006559
238	0x3e545837	0.20736776
239	0xbe030631	-0.1279533
240	0xbd12f65c	-0.035879478
241	0xbda0e933	-0.07856979
242	0x3e46b245	0.19403942
243	0xbd0385f9	-0.03211019
244	0x3d005f04	0.031340614
245	0xbd84815d	-0.064699866
246	0xbdcb8786	-0.099379584
247	0x3c02bfa8	0.007980265
248	0x3dacfebb	0.084470235
249	0x3ecf7f6f	0.40526912
250	0xbdcd3c3d	-0.10021255
251	0x3e51e3eb	0.204971
252	0xbd2ef8a1	-0.04271758
253	0x3d6445a7	0.05573049
254	0xbd2e2418	-0.04251489
255	0xbe77b3e1	-0.24189712

out_layer.weight f4 [10, 128]
0	0xbf14256f	-0.5786962
1	0xbe856cea	-0.26059657
2	0x3f0a6159	0.5405479
3	0x3cbe3dc3	0.02322281
4	0x3d866aa3	0.06563308
5	0xbf0911ef	-0.5354299
6	0x3f33278f	0.69982237
7	0xbd611e50	-0.05496055
8	0xbf306e19	-0.68917996
9	0x3f3a51de	0.7278117
10	0xbed33b07	-0.41255972
11	0x3ed7b6ea	0.4213174
12	0x3e889bb7	0.266813
13	0x3e3d4189	0.18482031
14	0xbf0b72be	-0.5447196
15	0xbf25b64d	-0.64731294
16	0x3e5d6f66	0.21624526
17	0xbe1a9760	-0.15096807
18	0xbe4d6e2a	-0.20061556
19	0x3e7303e6	0.23731956
20	0xbdc1748c	-0.09446058
21	0xbe48d2da	-0.19611683
22	0xbdfe327d	-0.124119736
23	0xbe0ca434	-0.13734514
24	0xbd9e369b	-0.07725259
25	0x3db6d631	0.089275725
26	0xbcfe0361	-0.03100747
27	0x3e142604	0.14467627
28	0x3e13887a	0.1440753
29	0xbdf46ddf	-0.11935019
30	0xbe1262d3	-0.14295511
31	0x3e35275b	0.17690794
32	0xbf831550	-1.0240879
33	0x3f6aaf46	0.91673696
34	0x3f26877c	0.6505048
35	0xbece089e	-0.4024095
36	0xbf5731a1	-0.840601
37	0x3ec7c654	0.390185
38	0x3f0cba42	0.54971707
39	0x3f40f4fd	0.7537382
40	0xbed87970	-0.4228015
41	0x3f396472	0.7241889
42	0x3f87427c	1.0567164
43	0xbe17f25f	-0.14838551
44	0xbf546af7	-0.82975715
45	0x3fa5be4b	1.2948698
46	0x3f9fcccf	1.2484378
47	0x3f474d32	0.77852166
48	0x3e0882d3	0.13331155
49	0xbe0fad7a	-0.1403102
50	0xbe205255	-0.15656407
51	0xbc36a6aa	-0.011148134
52	0x3e2623f5	0.16224654
53	0xbe16367b	-0.1466922
54	0xbd84902c	-0.06472811
55	0x3e0087ee	0.12551853
56	0xbdee2f52	-0.116301194
57	0x3debb279	0.1150865
58	0xbe09a75d	-0.1344275
59	0xbc3d302c	-0.01154713
60	0x3e0604e7	0.13087808
61	0xbda44ec7	-0.08022838
62	0x3e141dfa	0.1446456
63	0xbdbdbfaf	-0.09265076
64	0x3ea0c749	0.31402043
65	0x3f00fc35	0.5038484
66	0xbf4e24e2	-0.8052503
67	0xbefa6eed	-0.48912755
68	0x3ee60580	0.4492607
69	0x3ec4c902	0.38434607
70	0x3f3de086	0.7417072
71	0xbee5c2a7	-0.4487507
72	0x3f2247af	0.6339063
73	0xbf514338	-0.8174319
74	0x3ea029dd	0.3128194
75	0xbeb5eb8b	-0.35531268
76	0x3f8d6b21	1.1048318
77	0x3f11ff87	0.5703053
78	0x3f15fc83	0.5858843
79	0xbfa5ffc7	-1.2968682
80	0x3f943bab	1.1580709
81	0x3e2d6503	0.16933064
82	0xbd2865c5	-0.04111268
83	0x3f72fd25	0.9491752
84	0x3ea7f320	0.32802677
85	0xbe8384cf	-0.25687262
86	0xbf8d9b51	-1.1063024
87	0xbdcabb5a	-0.09899016
88	0x3d763ce8	0.06011668
89	0x3f9740a3	1.18166
90	0xbf7c2610	-0.9849558
91	0xbf37f76b	-0.71861905
92	0x3f8734c5	1.0562979
93	0xbee5c73d	-0.4487857
94	0xbef4081d	-0.4766244
95	0xbf651e5d	-0.89499456
96	0xbe86575b	-0.26238522
97	0xbed4c32b	-0.4155515
98	0x3f02a129	0.5102716
99	0xbe49e298	-0.19715345
100	0xbe88d41f	-0.26724336
101	0xbe7ffbf0	-0.2499845
102	0x3da6e107	0.08148389
103	0xbe145e05	-0.1448899
104	0xbee9e311	-0.4568105
105	0x3e7b986f	0.24569868
106	0xbe74cc89	-0.23906149
107	0xbea4d164	-0.32191002
108	0x3e733165	0.23749311
109	0xbe80c57a	-0.25150663
110	0x3e59b8ab	0.21261851
111	0xbef67d03	-0.4814225
112	0xbf7cbfb8	-0.9873004
113	0x3f251d49	0.6449781
114	0x3f9a8251	1.207102
115	0xbe87da01	-0.2653351
116	0x3f2d6aeb	0.6774127
117	0x3f71db02	0.94474804
118	0x3f2d961b	0.6780717
119	0xbf1ceb9b	-0.61297005
120	0x3f35fbb5	0.710872
121	0x3f8469e2	1.0344813
122	0x3f2d91d2	0.6780063
123	0xbfe10b32	-1.7581542
124	0xbf20f88c	-0.6287925
125	0x3f9f3cb6	1.2440403
126	0x3fb5731a	1.4175751
127	0x3f2eb9a8	0.6825204
128	0xbd959ead	-0.07305656
129	0xbde037ea	-0.10948165
130	0x3e2687fc	0.16262811
131	0xbe466d12	-0.19377545
132	0xbd03d00a	-0.032180823
133	0xbdbc57d3	-0.09196439
134	0x3e129ca3	0.14317565
135	0x3e5c18a4	0.21493775
136	0xbcbb4329	-0.022859173
137	0xbe603013	-0.21893339
138	0x3d8bedc4	0.068324596
139	0x3d05a64a	0.03262929
140	0x3db71a02	0.089405075
141	0xbda31e5e	-0.079647765
142	0x3d6ea2b6	0.058260642
143	0x3df837c7	0.12120014
144	0xbfa45221	-1.2837564
145	0x3f45fa1f	0.7733478
146	0x3f86dcd1	1.0536138
147	0xbfa85ca6	-1.3153274
148	0xbde6a4aa	-0.11261876
149	0x3f87f91e	1.06229
150	0x3f5e7ce7	0.86909336
151	0xbe45d588	-0.19319737
152	0x3f3bf597	0.73421615
153	0x3df52805	0.11970524
154	0xbeb0deca	-0.34544975
155	0x3e6a791a	0.22897759
156	0x3e59fe50	0.21288419
157	0xbe30552c	-0.1721999
158	0x3f8206af	1.015829
159	0x3e84c35f	0.25930306
160	0x3f47dc22	0.7807027
161	0x3d00bf3b	0.03143237
162	0x3c9bc872	0.019016478
163	0xbf3ac4da	-0.7295662
164	0x3f1c22a0	0.60990334
165	0xbd7c58fd	-0.061608303
166	0xbed0871e	-0.40728086
167	0x3e07482b	0.13211124
168	0xbef5138f	-0.47866485
169	0x3ea96deb	0.33091673
170	0xbe396417	-0.18104587
171	0x3f27819b	0.6543214
172	0x3ecb2643	0.3967763
173	0x3df39ef4	0.11895552
174	0xbf256fb8	-0.64623594
175	0x3f9541a2	1.1660655
176	0x3e1c21a3	0.15247206
177	0xbe1e1d3d	-0.15440841
178	0xbe2f87b3	-0.17141609
179	0xbba08f0c	-0.004899865
180	0x3e3cc52a	0.18434587
181	0xbe2df9c0	-0.16989803
182	0x3c24f8a4	0.010069046
183	0x3e17b2f9	0.14814366
184	0xbe08168d	-0.13289852
185	0x3e094433	0.13404922
186	0xbe222346	-0.15833768
187	0x3c9c2a23	0.019063061
188	0x3e1c5f1c	0.15270656
189	0xbdba4126	-0.09094457
190	0x3e2a9112	0.16656902
191	0xbddecc36	-0.10878794
192	0x3e1e48bc	0.15457433
193	0x3e829c97	0.25510094
194	0x3cc36c2a	0.023855288
195	0xbc6cedb9	-0.014460974
196	0xbe4d28a3	-0.20035033
197	0x3f18594b	0.5951125
198	0xbece1ecb	-0.40257868
199	0xbda2b0fb	-0.079439126
200	0x3d706bc3	0.05869652
201	0x3f0f9f62	0.56102574
202	0x3ead26ab	0.33818564
203	0x3b86ebbc	0.004117457
204	0xbe8dc1ef	-0.27687022
205	0x3dd9e582	0.10639478
206	0xbdf022e3	-0.11725404
207	0x3eb3b192	0.35096413
208	0xbdb66069	-0.089051075
209	0x3dc93df2	0.09826268
210	0x3d25ac26	0.040447377
211	0xbe6b5f84	-0.22985655
212	0x3e5843f3	0.2111967
213	0xbe0d9370	-0.13825774
214	0x3dfbcae9	0.122945614
215	0x3c7036c1	0.014661492
216	0x3e12805e	0.1430678
217	0xbde5cbc5	-0.112205066
218	0x3ddd5580	0.108073235
219	0x3e1b312c	0.15155476
220	0xbdf29769	-0.118452854
221	0x3e226bd0	0.1586144
222	0x3e3e6202	0.18592075
223	0x3e0df288	0.1386205
224	0x3ffee8a5	1.9914747
225	0x402ffe3e	2.7498927
226	0xc0451812	-3.0795941
227	0xbe740c1d	-0.23832746
228	0xbe9c6ae9	-0.30550316
229	0xbe91cb41	-0.28475383
230	0xbdaf2a5b	-0.085530005
231	0xbe669c02	-0.2252045
232	0x403356d8	2.8021755
233	0x3e72f864	0.23727566
234	0xbe8d9a7d	-0.27656928
235	0xbe7b994d	-0.24570198
236	0x3e83dfc7	0.25756666
237	0xbe6eb6cb	-0.23311917
238	0x3e741706	0.23836908
239	0x403f0a3b	2.9849994
240	0x3d2b985a	0.04189334
241	0x3f2b77d9	0.6697975
242	0xbe9f7a8d	-0.31148186
243	0x3edcd828	0.43133664
244	0x3e836c6c	0.25668657
245	0xbe4160c5	-0.18884571
246	0x3daf15fd	0.08549116
247	0x3e48d7dc	0.19613594
248	0x3e13d462	0.14436486
249	0xbf0aaf4b	-0.54173726
250	0xbf1cf675	-0.61313564
251	0x3f0ae7c4	0.54259896
252	0x3f19dea4	0.6010535
253	0x3e6a7108	0.2289468
254	0x3edb76d7	0.42864105
255	0x3dbb00ca	0.0913101
