dictionary_lookup/saved_models/gatv2_128_s10.pt (torch, 85083 bytes, 6 tensors)

layer0_keys.weight f4 [11, 128]
0	0xbf07d909	-0.53065544
1	0x3f89feef	1.0780925
2	0xbe922a6c	-0.2854799
3	0x3df5d0a0	0.12002683
4	0xbe33fc08	-0.17576611
5	0xbfb0fa38	-1.3826361
6	0x3e56ab8a	0.20963874
7	0xbf17723a	-0.5915867
8	0xbe75c8ed	-0.24002428
9	0xbf0a9a09	-0.5414129
10	0x403d9b47	2.9626024
11	0xbf21c0f2	-0.63185036
12	0x3fa5233a	1.2901375
13	0x3ee9933e	0.4562015
14	0xbfa855fe	-1.3151243
15	0x3dae7fca	0.085204676
16	0x3ea19738	0.31560683
17	0x3fd234ac	1.6422324
18	0xbfc84434	-1.5645814
19	0xbfcbd819	-1.5925323
20	0xbd9ae5e0	-0.075633764
21	0xbf807300	-1.0035095
22	0x3fb9b1e8	1.4507418
23	0x3f2e2a7a	0.68033564
24	0xbeb646e4	-0.3560096
25	0x3f15711a	0.58375704
26	0x3f40213d	0.7505072
27	0x3f25a0be	0.646984
28	0x4007b02b	2.1201274
29	0xbf898eb0	-1.074667
30	0xbfa6e03a	-1.3037179
31	0x3f9c9981	1.2234346
32	0xbe413a97	-0.18870007
33	0x3eea9648	0.4581778
34	0xc003d358	-2.0597744
35	0x3d80613c	0.06268546
36	0x3f0fa7aa	0.5611521
37	0xbf065628	-0.52475214
38	0xbf3b1aea	-0.7308794
39	0x3e29df44	0.16589075
40	0x3f38c593	0.72176474
41	0xbf25b1e2	-0.6472455
42	0x3e9fd96e	0.31220573
43	0x3ed8cce4	0.4234382
44	0x40439905	3.0562146
45	0xbe87a516	-0.26493138
46	0xbf0efab0	-0.5585127
47	0x3f9036f8	1.1266775
48	0x3d6b1b5a	0.05739913
49	0xbf09c0ac	-0.5380962
50	0x3f1fc091	0.6240321
51	0xbfcb5426	-1.5885055
52	0x3f1fbd52	0.62398255
53	0x3f586b58	0.84538794
54	0x3f83d63e	1.0299757
55	0xbdfd8e51	-0.1238066
56	0x3fb2fbd0	1.3983097
57	0xbdab6e74	-0.08370677
58	0xbf83647c	-1.026504
59	0x3df1761a	0.11790104
60	0xbf85d70d	-1.0456253
61	0x3e8dfe40	0.2773304
62	0x3f0a8a77	0.5411753
63	0x3fb552db	1.416591
64	0xbfaf26d4	-1.3683724
65	0x3f01154b	0.50423115
66	0xbeed75b3	-0.4637886
67	0x3ecd57d6	0.40106076
68	0xbf634e0a	-0.88790953
69	0xbf4733bd	-0.7781332
70	0x40055e9e	2.0839
71	0x3e05bd57	0.13060509
72	0xbf5b0c9f	-0.85566133
73	0xbfdae807	-1.7102059
74	0xbd8ae234	-0.06781426
75	0x3fb4fcbb	1.4139627
76	0x3f21d7dd	0.63220006
77	0x3f9f83c8	1.2462091
78	0xbfe5ab99	-1.7942992
79	0xbd97e674	-0.07417002
80	0x3f4ecf61	0.80785185
81	0xbe5b8610	-0.2143786
82	0xbea0979a	-0.31365663
83	0xbf2998dd	-0.66248876
84	0xbe5115f0	-0.20418525
85	0xc0220f7e	-2.5321956
86	0x3ecd5611	0.40104726
87	0x3f9757a9	1.1823627
88	0x3d920cd3	0.07131352
89	0xbdd110ea	-0.10208304
90	0x3f4be229	0.7964197
91	0x3d1f2945	0.038857717
92	0x401458ad	2.3179123
93	0x3f685fcf	0.9077119
94	0xbfd76a9d	-1.6829411
95	0x3b81831b	0.0039523966
96	0x3f02f1b1	0.5115004
97	0xbf116520	-0.5679493
98	0xbf35e7dc	-0.71056914
99	0x3f97a25d	1.1846424
100	0xbf92b0f7	-1.1460255
101	0xbfd92592	-1.696459
102	0x3f892729	1.0715076
103	0xbf8a0f26	-1.0785873
104	0x400c1f3b	2.1894062
105	0x3eedece0	0.46469784
106	0xbfd6f077	-1.6792134
107	0x3fc61b12	1.5477011
108	0xbf69c450	-0.91315174
109	0x400182be	2.0236049
110	0x3f459d7b	0.7719342
111	0x3eb5f361	0.35537246
112	0x3f2fb5c3	0.6863672
113	0xbf3f367e	-0.74692523
114	0x3ee1f8a9	0.44135025
115	0xc036fa8a	-2.8590417
116	0xbfe03a42	-1.7517779
117	0xc03ceb67	-2.9518678
118	0x3e1408b7	0.1445645
119	0x3e52fd3f	0.20604418
120	0x3ecd3086	0.40076083
121	0xc00a0c69	-2.1570075
122	0xbf35c73a	-0.7100712
123	0x3f5aa790	0.8541193
124	0x3ddcc5ee	0.107799396
125	0x3f341f22	0.70360005
126	0xbf95fb85	-1.1717383
127	0x3f893d1f	1.0721778
128	0xbf607a33	-0.8768646
129	0xbf653e8c	-0.89548564
130	0x3fac6095	1.3466974
131	0x3ffdbbe7	1.9822968
132	0xbea502ad	-0.32228604
133	0x3f19ddf7	0.60104316
134	0x3fa0fff3	1.257811
135	0xbf54f017	-0.8317885
136	0x3f36c904	0.71400476
137	0x3f7c89c2	0.986477
138	0x3f7f552c	0.99739337
139	0x3fa524f5	1.2901903
140	0x3dff2dbd	0.12459896
141	0xbfa67358	-1.300395
142	0x3c56a4b0	0.013100788
143	0xbe766777	-0.24062906
144	0x3ec5f383	0.38662347
145	0xbf035c27	-0.5131249
146	0x3efe8dd8	0.49717593
147	0xbec1e32e	-0.37868637
148	0x3f943773	1.1579422
149	0xbd53a39d	-0.051669706
150	0xbfb08ee0	-1.3793602
151	0xc01443c5	-2.3166363
152	0x3eda4169	0.4262803
153	0x3f511fca	0.8168913
154	0x3fadf573	1.359053
155	0x3fb44753	1.4084266
156	0xbedf1bbb	-0.43575844
157	0xbf45b86d	-0.77234536
158	0x3ea2c7c1	0.31793025
159	0x3e9576ca	0.2919219
160	0x3fddddc3	1.7333301
161	0x3ec7269f	0.38896653
162	0xbd90fd13	-0.0707952
163	0xbfa06749	-1.253152
164	0x3e5b2397	0.21400295
165	0xbfa641f2	-1.2988875
166	0xbe0f38c8	-0.13986504
167	0xbdc99a17	-0.098438434
168	0x3fa67d26	1.3006942
169	0xbfad2f85	-1.3530127
170	0x3f8a11cf	1.0786685
171	0xbeafa848	-0.34308076
172	0x3f8db0fc	1.1069636
173	0xbe855e90	-0.26048708
174	0x3f1ce803	0.6129152
175	0xbf33c679	-0.7022472
176	0xc009be93	-2.1522567
177	0x3d6a75f5	0.0572414
178	0xbeb931fc	-0.36170948
179	0xbf3237af	-0.69616216
180	0xc008596d	-2.130458
181	0xc032a5c7	-2.7913682
182	0x3ef4c7a3	0.4780856
183	0x3f88201d	1.06348
184	0x3fab9d36	1.3407352
185	0x3f36a40f	0.71344084
186	0xbc29d074	-0.0103646405
187	0x3f86256e	1.0480173
188	0xbef0070d	-0.4688038
189	0x3f74f6d0	0.95689106
190	0x3eb50e5f	0.35362527
191	0x40093725	2.1439908
192	0xbf9cbf5c	-1.2245898
193	0xbf824ec6	-1.018029
194	0x3eda5bc9	0.42648152
195	0xbf5be8c5	-0.85902053
196	0xbef6872a	-0.48149997
197	0x3e961e9f	0.29320237
198	0xbf2347bc	-0.6378133
199	0xbf0aafb2	-0.5417434
200	0x3e95bb1b	0.29244313
201	0x3eb0f3de	0.34561056
202	0xbf72dfce	-0.9487275
203	0xbf7245f1	-0.9463797
204	0x3fa35ba3	1.276234
205	0xbf1e87cd	-0.61925966
206	0x3f351a82	0.7074357
207	0x3e0b68f5	0.13614257
208	0x3f2feca5	0.68720466
209	0x3e32ab49	0.17448153
210	0xbf5b75ee	-0.8572682
211	0x3ed5ae94	0.41734755
212	0xbe1087a1	-0.14114238
213	0x3fa7f300	1.3121033
214	0x40130e1d	2.2977364
215	0x3ee620ae	0.44946808
216	0xbe1c5f34	-0.15270692
217	0xbfe3b323	-1.7789043
218	0xbefe8768	-0.49712682
219	0xbfd26892	-1.6438162
220	0x3e81ace7	0.25327227
221	0xc009962e	-2.1497912
222	0x3f55592b	0.83339185
223	0x3cd545ed	0.02603432
224	0xbfdb00d7	-1.7109631
225	0xbedf95ed	-0.43669072
226	0x3ddda941	0.10823298
227	0x3fb5858f	1.4181384
228	0xbf4baeba	-0.79563487
229	0xbfbf4b68	-1.4944887
230	0x3e2d69f0	0.16934943
231	0xbfe2d9e4	-1.7722745
232	0xbfc8dfc2	-1.5693285
233	0xbcf67ad6	-0.03008787
234	0x3eec9934	0.46210635
235	0xbe7b281c	-0.2452702
236	0x3f801914	1.0007653
237	0xbe0e0431	-0.13868786
238	0x3f693ffc	0.9111326
239	0x3f8d4bb7	1.1038731
240	0xbf9e9335	-1.2388674
241	0xc00bc66a	-2.1839852
242	0x3f166874	0.5875313
243	0xbf832b28	-1.0247545
244	0xbf1ae2d8	-0.60502386
245	0x3f0ad92c	0.5423763
246	0x3f9461bc	1.1592326
247	0x3fa0e234	1.2569032
248	0x3fd130e8	1.634305
249	0x3eff3a93	0.49849376
250	0x3e94d5a5	0.29069248
251	0xbee45828	-0.44598508
252	0xbf088ca3	-0.53339595
253	0xbedc47bb	-0.43023476
254	0xbea38c35	-0.31942907
255	0x3d72c93f	0.059273954

layer0_values.weight f4 [11, 128]
0	0xbf96a595	-1.1769282
1	0x3ebe56b7	0.37175533
2	0xbd055a0a	-0.03255657
3	0xbf8911eb	-1.0708593
4	0xc02c5fa5	-2.6933377
5	0x3ea4429d	0.32082072
6	0xc001d2d5	-2.0284932
7	0xbefd4e05	-0.49473587
8	0xbf7a2de0	-0.9772625
9	0x3f0417b3	0.5159866
10	0x3be95e5e	0.007121845
11	0xbf2e8e86	-0.68186224
12	0xbfa08e57	-1.2543439
13	0xbccb7ed8	-0.024840757
14	0xbf8e341f	-1.1109656
15	0xbfbe629e	-1.4873846
16	0x3f8c1223	1.0943035
17	0xbf861007	-1.0473641
18	0x3c86c075	0.016449193
19	0xbf52d023	-0.8234884
20	0x3e9ce91d	0.306466
21	0x3fcec721	1.6154519
22	0x3fdb1205	1.7114874
23	0x3f635cd1	0.888135
24	0x3ffde0c5	1.9834219
25	0xbfc71303	-1.5552677
26	0xc00c7d63	-2.195153
27	0x3ece7bab	0.40328726
28	0x3f916183	1.1357883
29	0x3fb215a9	1.391286
30	0x3fd5e666	1.6710937
31	0x3facad4d	1.3490387
32	0xbeba8641	-0.36430553
33	0xbfe77abc	-1.808433
34	0x3fb61233	1.4224304
35	0xbf376691	-0.7164088
36	0x3f0379d3	0.51357764
37	0x4028c5db	2.6370761
38	0xbece9dba	-0.4035471
39	0xbdd04e18	-0.10171145
40	0xbf0606f9	-0.5235439
41	0xbf10ffd8	-0.56640387
42	0x3fcaa7fb	1.5832514
43	0xbf218514	-0.63093686
44	0xbf18971e	-0.59605587
45	0x3ffd34fa	1.9781792
46	0xbc7ced4b	-0.015437434
47	0x3f607264	0.87674546
48	0x3f99f274	1.2027116
49	0xbf9358bb	-1.1511453
50	0x3f3b3b4d	0.7313736
51	0x3f67d9a4	0.9056647
52	0x3d82623b	0.06366392
53	0xbf0b5ef8	-0.54441786
54	0xbf64d66c	-0.8938968
55	0x3f1df175	0.6169656
56	0xbd9547d3	-0.0728909
57	0xbfa2f36f	-1.273054
58	0xbf6d1f8c	-0.9262626
59	0xbf8f05a3	-1.1173595
60	0xc00fe371	-2.248257
61	0xbf91c1ff	-1.1387328
62	0xbea56558	-0.32303882
63	0x3d26b76c	0.04070227
64	0x3e9aeba6	0.3025791
65	0xbeb2ed94	-0.34946883
66	0xbf15f19b	-0.58571786
67	0xbf36ed3d	-0.71455747
68	0xbe85847f	-0.2607765
69	0xbf5faa46	-0.8736919
70	0xbd06e4cd	-0.032933045
71	0xbfc312fc	-1.5240169
72	0x3fa581c8	1.2930231
73	0x3cdeb184	0.027184255
74	0xc02216a9	-2.532633
75	0x3fc370cd	1.5268799
76	0x3f5b9b45	0.857838
77	0x3fc77f2a	1.5585682
78	0x3f98989b	1.1921571
79	0x4002d4ec	2.0442457
80	0xbff69c68	-1.9266481
81	0xbdc99c5c	-0.09844276
82	0x3f089142	0.53346646
83	0xbf8dc7d7	-1.1076611
84	0x3e4896c1	0.19588758
85	0x3f40eaff	0.75358576
86	0xbf5710de	-0.8401011
87	0x3ed3139b	0.41225895
88	0x3f00f745	0.50377303
89	0x3cfc939e	0.030832108
90	0x3d9e0da9	0.07717449
91	0xbd7125a0	-0.058873773
92	0xbf7b23a0	-0.98101234
93	0x3e88a0d3	0.266852
94	0xbc720760	-0.014772266
95	0xbf141e2f	-0.57858557
96	0xbf64ff9e	-0.8945254
97	0x3fe17058	1.761241
98	0xbe911a75	-0.28340498
99	0xbf40f756	-0.75377405
100	0xbf329f78	-0.6977458
101	0x3cf41a2f	0.029797642
102	0x3f9b72f5	1.2144457
103	0xbf6da767	-0.9283356
104	0x3d3a9e14	0.04556091
105	0xbf7a5bcd	-0.97796327
106	0x3f3fcfd9	0.74926525
107	0xbe8aefc8	-0.27136064
108	0xbf5aedcd	-0.85519105
109	0xbfc06e9c	-1.5033755
110	0x3fbbb03e	1.466316
111	0x3e53a3ad	0.20667906
112	0xbfcd3841	-1.6032792
113	0x3f88dc91	1.0692312
114	0x3f0eb59a	0.5574585
115	0xbf6b6f99	-0.9196716
116	0x3ecb6437	0.39724895
117	0x3f908618	1.1290922
118	0x40054ead	2.082927
119	0xbf796626	-0.9742149
120	0xbf7c5cae	-0.9857892
121	0x3f6eb922	0.9325124
122	0xbf07319b	-0.52810067
123	0x3dbd381c	0.09239218
124	0xbf911d1e	-1.1337011
125	0xbf363dba	-0.7118794
126	0xbff34d76	-1.9008014
127	0xbf8113b8	-1.0084143
128	0xbf4c274e	-0.79747474
129	0xbedbebdd	-0.42953387
130	0xbf309f78	-0.6899333
131	0xbd944614	-0.07239929
132	0x3e139964	0.14413983
133	0xbfccac9c	-1.5990176
134	0x3fb0415d	1.3769947
135	0x3f584dcc	0.8449371
136	0x3f48c455	0.7842458
137	0x3f55f110	0.8357096
138	0xbf0e9ff9	-0.5571285
139	0x3bb1d454	0.005426923
140	0x3c8f7f72	0.017516825
141	0x3f57abf6	0.84246767
142	0x3f8bc7c3	1.0920337
143	0x3f86a8ec	1.0520301
144	0xbf0bd945	-0.546284
145	0xbf75fa77	-0.96085304
146	0x3cd32644	0.025775082
147	0xbed01a0b	-0.4064487
148	0x3e94dfb5	0.29076925
149	0xbe7da8cd	-0.24771424
150	0x3f332785	0.69982177
151	0xbfa1c669	-1.2638675
152	0x3e7c4e61	0.24639274
153	0x3fa2efa8	1.2729387
154	0xbd79702a	-0.060897984
155	0xbf80ff8a	-1.0077984
156	0xbcf8305f	-0.030296503
157	0xbfaedbe6	-1.3660858
158	0x3fd23750	1.642313
159	0x3f544912	0.82923996
160	0x3f37940c	0.71710277
161	0xbf342770	-0.70372677
162	0x3c659a34	0.014013816
163	0x3ee5713c	0.44812953
164	0xbf13fc18	-0.5780654
165	0xbfc4d82f	-1.5378474
166	0xbedce4b6	-0.43143243
167	0xbf9b6b56	-1.2142131
168	0xbf89c3a0	-1.0762825
169	0xc0061cf8	-2.095518
170	0x3eb8ae7c	0.3607062
171	0x3f0ebd6c	0.55757785
172	0x3eeb1517	0.45914528
173	0xbf57c9ef	-0.842925
174	0xbec67b7e	-0.38766092
175	0x3f0cdcba	0.550243
176	0xbe3ba776	-0.183256
177	0xbf90d04c	-1.1313567
178	0x3f4cd907	0.8001866
179	0xbf923a2b	-1.1424001
180	0x3f0133f7	0.5046992
181	0xc008fdeb	-2.140498
182	0xbf02f98f	-0.51162046
183	0xbe33c9ee	-0.17557499
184	0xbf2e559c	-0.6809938
185	0x3f027ef0	0.5097494
186	0xbef10ae3	-0.47078618
187	0xbf769802	-0.96325696
188	0x3e092666	0.13393554
189	0x3e53f8d5	0.2070039
190	0x3ea39208	0.3194735
191	0x3e355397	0.17707668
192	0xbf279a2c	-0.6546962
193	0xbfe94c9d	-1.8226506
194	0xbec717cf	-0.38885352
195	0xc014ee47	-2.3270433
196	0x3f142d1a	0.5788132
197	0xbf988eb8	-1.1918554
198	0xbf477c18	-0.7792373
199	0x3f8aa28d	1.0830857
200	0x3e2b3275	0.16718467
201	0xbe9a26d3	-0.30107746
202	0x3f1d1bdf	0.6137065
203	0xbfb9c2d4	-1.4512582
204	0x3f15bf52	0.58495057
205	0xbf41450d	-0.7549599
206	0xbf9e1e69	-1.235303
207	0x3ec0b8fb	0.3764113
208	0xbf034655	-0.51279193
209	0xbf34b27e	-0.7058486
210	0x3f444113	0.76661795
211	0x3f03eaa0	0.51529884
212	0x3fd7e045	1.6865317
213	0x3d9e78d6	0.077378914
214	0x3f82369c	1.0172915
215	0xbebb9bc6	-0.36642283
216	0x3b1d8e9d	0.0024041303
217	0xbfbd5eda	-1.4794571
218	0xbe64983e	-0.22323701
219	0xbe4da061	-0.20080711
220	0xbf4c42a3	-0.7978918
221	0xbfe791ef	-1.809141
222	0xbfc65dac	-1.5497336
223	0xbeac1a29	-0.3361371
224	0xbf741838	-0.95349455
225	0x3f284729	0.6573358
226	0x3ee1036c	0.43947923
227	0x3f102b32	0.5631591
228	0x3e824717	0.25444862
229	0xbd27119d	-0.04078828
230	0x3fd4d376	1.6627033
231	0x3f0d5b89	0.55217797
232	0x400e3d1a	2.2224793
233	0x3f36516b	0.71217984
234	0xbfa18a91	-1.2620412
235	0xbf0a048a	-0.53913176
236	0xbf0342de	-0.51273906
237	0x3f79b1fa	0.97537196
238	0xbf7edfb4	-0.99560094
239	0xbf8d4c2a	-1.1038868
240	0x3e47fb4e	0.19529459
241	0x3f76bdf6	0.9638361
242	0x3fc6de13	1.5536522
243	0xbfd710ed	-1.680204
244	0xc02ce803	-2.7016609
245	0xbf847465	-1.0348021
246	0xbf10d361	-0.5657254
247	0x3ebf0f6e	0.3731646
248	0xbe417244	-0.18891245
249	0x406c9725	3.6967251
250	0x3ed283de	0.41116232
251	0x400fdfc5	2.2480328
252	0x3d557e9a	0.05212269
253	0x3f1dc6a7	0.61631244
254	0x3e9ba6fa	0.3040083
255	0xbf89b8eb	-1.0759557

layers.0.att f4 [1, 1, 128]
0	0x3e9bf371	0.3045917
1	0xbe6a265f	-0.228662
2	0x3e295561	0.16536476
3	0xbd472112	-0.048615523
4	0xbe2f6b05	-0.17130668
5	0x3b28eba0	0.002577521
6	0x3d2b84c8	0.041874677
7	0xbe001663	-0.1250854
8	0x3e9225a3	0.2854434
9	0x3e9eedef	0.31040904
10	0x3e3ca7be	0.18423364
11	0xbe5fdfd5	-0.21862729
12	0xbcf613f5	-0.030038813
13	0x3e057364	0.130323
14	0xbc971d62	-0.018446628
15	0xbdddeec9	-0.1083656
16	0xbe1804c6	-0.14845571
17	0xbe0923fc	-0.13392633
18	0xbcfd8b06	-0.03095008
19	0x3e10fa26	0.14157924
20	0xbe1609ff	-0.1465225
21	0xbe4b8c94	-0.19877845
22	0x3e8426d2	0.25810868
23	0x3db47229	0.08810837
24	0x3e813533	0.252359
25	0x3e911918	0.28339458
26	0xbe7658c5	-0.240573
27	0x3cdab6cd	0.026698494
28	0x3e0c39d6	0.13693938
29	0x3dc21374	0.09476367
30	0x3e87575e	0.26433843
31	0x3d6e90fe	0.058243744
32	0x3d2105d6	0.039312206
33	0x3e8d5c8a	0.27609664
34	0x3e95d70a	0.29265624
35	0xbd04b1dd	-0.032396186
36	0xbc3c3429	-0.011487045
37	0xbddec4c6	-0.10877375
38	0x3e68e2a0	0.227427
39	0x3e29a1ba	0.165656
40	0xbe7fe793	-0.24990682
41	0x3ea4330b	0.32070193
42	0xbe079eab	-0.13244121
43	0xbe1afc02	-0.15135196
44	0xbdb93da0	-0.09044957
45	0xbdb92012	-0.0903932
46	0xbe2f8566	-0.17140731
47	0xbde0c4b3	-0.109750174
48	0xbe17634e	-0.14783975
49	0xbdb47461	-0.0881126
50	0xbdb0c58c	-0.08631429
51	0xbe1dab48	-0.1539737
52	0x3e93d44f	0.28872916
53	0xbd288930	-0.041146457
54	0xbe352ff7	-0.17694078
55	0xbdfe649a	-0.12421532
56	0x3ddd5e33	0.10808983
57	0x3e37a9ae	0.17935821
58	0x3ea267d9	0.31719854
59	0xbdf14a01	-0.11781693
60	0x3e6b3f15	0.22973283
61	0x3dfd8469	0.12378771
62	0x3e864da8	0.26231122
63	0x3e3c4284	0.18384749
64	0x3e4a3a68	0.19748843
65	0x3dd34659	0.10316152
66	0x3e9a28e0	0.3010931
67	0x3e7f4729	0.24929489
68	0x3e9d22d8	0.30690646
69	0x3e33940e	0.17536947
70	0x3e64df3d	0.22350784
71	0x3d1c6cf0	0.03818983
72	0xbd76e2df	-0.060274955
73	0x3c958527	0.018251969
74	0x3e9c92b7	0.30580685
75	0x3e1d995a	0.1539053
76	0xbe22d447	-0.1590129
77	0x3e1aee5d	0.15129991
78	0x3e90990b	0.28241763
79	0x3e37bbcd	0.17942734
80	0x3e39774c	0.18111914
81	0x3e81cdbe	0.2535228
82	0xbe449bff	-0.19200133
83	0x3cca4fab	0.024696192
84	0x3e7355cd	0.23763199
85	0xbe40d3ef	-0.18830846
86	0xbc32b66f	-0.010907753
87	0xbe642ffe	-0.22283933
88	0x3e55f075	0.20892508
89	0xbdce6031	-0.10076941
90	0x3e632f60	0.22186041
91	0x3d4bec3b	0.049785834
92	0xbdee50c8	-0.116365016
93	0xbde6cfc9	-0.112701006
94	0xbbbbba20	-0.005728975
95	0xbdbcc0dc	-0.092164725
96	0xbe255492	-0.16145542
97	0x3d98ae61	0.07455135
98	0x3e0e7867	0.13913117
99	0x3d5a54f9	0.053303692
100	0x3df3896d	0.11891446
101	0xbda28ff6	-0.079376146
102	0x3ea20575	0.31644788
103	0xbe362aeb	-0.1778981
104	0xbe2a0354	-0.16602832
105	0xbe136745	-0.14394863
106	0xbd2ede95	-0.04269274
107	0x3e4ee6f3	0.20205288
108	0xbd031891	-0.03200585
109	0xbdddb42e	-0.10825382
110	0xbdd90696	-0.10596959
111	0x3e9df53f	0.3085117
112	0x3cdac43f	0.026704906
113	0xbcb37395	-0.0219057
114	0x3e380210	0.17969537
115	0xbd66ff15	-0.05639561
116	0x3e9a8a2b	0.3018354
117	0x3d2280ba	0.039673544
118	0x3e3ab3a5	0.18232591
119	0x3e6e7577	0.23286997
120	0x3e9ae39e	0.30251783
121	0xbe067e65	-0.13134153
122	0x3e1308c9	0.1435882
123	0x3e4383ed	0.19093294
124	0x3e163465	0.14668424
125	0xbcdc2c33	-0.026876545
126	0xbe15539d	-0.14582677
127	0x3e130c3b	0.14360134

layers.0.lin_l.weight f4 [128, 128]
0	0x3d93272e	0.07185207
1	0x3d4ae477	0.049534287
2	0x3e57df06	0.2108117
3	0xbc90e66a	-0.017687995
4	0x3dcdb29c	0.10043833
5	0xbccd6344	-0.025071748
6	0xbe36084e	-0.17776605
7	0xbd30a61d	-0.043127168
8	0xbd6debda	-0.058086254
9	0xbd9a2a33	-0.0752758
10	0x3df8459b	0.12122651
11	0xbd946f2f	-0.07247769
12	0xbdd1ce8f	-0.10244476
13	0xbe5262c5	-0.2054549
14	0xbcebf5b5	-0.028803686
15	0xbe0916bc	-0.13387579
16	0x3c1a9adc	0.009436335
17	0x3c7b58c3	0.015340987
18	0x3da412d6	0.08011405
19	0x3d335f5b	0.04379211
20	0x3da10806	0.078628585
21	0x3cfed91e	0.031109389
22	0x3d8dd756	0.06925838
23	0x3e2580b8	0.16162384
24	0xbdcc23d3	-0.099677704
25	0xbd87a73c	-0.06623694
26	0xbc66f633	-0.014096784
27	0x3e60d9a5	0.21958025
28	0x3d54e39b	0.051974874
29	0xbe3a306d	-0.18182535
30	0xbda95cc0	-0.08269644
31	0xbccec348	-0.025239602
32	0x3c4184c5	0.01181144
33	0x3cf1ea33	0.02953062
34	0xbe06a29a	-0.13147965
35	0xbd6d590b	-0.057946246
36	0xbe06bb71	-0.1315744
37	0xbe67d345	-0.22639187
38	0xbd7e2699	-0.06204853
39	0xbc6fa64c	-0.014627051
40	0x3d5a979a	0.053367235
41	0xbd4f824f	-0.05066138
42	0xbdc44db6	-0.09585135
43	0x3dee925f	0.11649012
44	0xbbbe57df	-0.005808815
45	0xbdf1b5ef	-0.11802279
46	0xbd7fa691	-0.06241471
47	0xbe3845aa	-0.17995325
48	0x3db3f350	0.087866426
49	0x3d8fbd38	0.070185125
50	0x3dad52c1	0.0846305
51	0x3e205040	0.15655613
52	0x3d307a5b	0.043085437
53	0xbe00924b	-0.12555806
54	0x3e17ff53	0.14843492
55	0x3d97fefa	0.0742168
56	0x3e2d0744	0.16897303
57	0x3d7862a3	0.060640942
58	0x3d67046f	0.056400713
59	0xbe080f5f	-0.13287114
60	0xbe10515c	-0.14093536
61	0x3e078b42	0.13236716
62	0xbe1f468b	-0.15554254
63	0x3c524e7b	0.012836094
64	0x3d3c3211	0.045946185
65	0x3e3d72a7	0.18500768
66	0xbd9aff31	-0.07568205
67	0x3d419d9a	0.04726944
68	0x3cd6ef6b	0.02623721
69	0xbdcda18b	-0.100405775
70	0xbdd53090	-0.10409653
71	0xbe123845	-0.14279278
72	0xbceba484	-0.02876497
73	0xbe1bf6f7	-0.15230928
74	0x3e6ae0c9	0.22937311
75	0xbd9cc44e	-0.0765463
76	0x3e1ce650	0.15322232
77	0xbd4b2266	-0.04959335
78	0xbd8ea2ea	-0.06964667
79	0xbcb9a22d	-0.02266034
80	0x3dcff793	0.10154643
81	0xbd8d5319	-0.06900615
82	0x3d8228e6	0.06355457
83	0x3d38c0cb	0.045105737
84	0x3d21190b	0.039330523
85	0x3e811731	0.25213006
86	0x3e088396	0.13331446
87	0x3d1bbbf6	0.03802105
88	0xbe29a34c	-0.16566199
89	0xbe056361	-0.13026191
90	0xbe49326a	-0.19648138
91	0xbc4883c1	-0.012238444
92	0x3e36c6ef	0.17849325
93	0x3e08d606	0.13362893
94	0xbdcc2147	-0.09967285
95	0xbdcfa675	-0.10139171
96	0xbe4be604	-0.19911963
97	0xbd9606a3	-0.073254846
98	0x3e3835e4	0.17989308
99	0x3e61a22e	0.22034523
100	0xbdcac436	-0.099007055
101	0xbe1ddad1	-0.15415503
102	0x3d99ca73	0.07509317
103	0xbd9c9b03	-0.07646754
104	0x3db27397	0.08713453
105	0x3bcdf45f	0.006285235
106	0xbd52a070	-0.051422536
107	0xbc7ec260	-0.015549272
108	0x3e0d8a7b	0.13822357
109	0x3d2d19e8	0.042261034
110	0xbd9c79a9	-0.07640392
111	0x3de092ea	0.10965522
112	0x3da89bd7	0.08232849
113	0x3da2b775	0.07945148
114	0x3dca69e0	0.09883475
115	0x3df402d7	0.11914604
116	0xbe632dff	-0.22185515
117	0xbd12433a	-0.035708643
118	0x3e8468b0	0.2586112
119	0x3d3ae142	0.04562498
120	0x3e01ab8c	0.12663096
121	0x3e239c37	0.1597756
122	0xbdc8bd00	-0.09801674
123	0x3d8a0b90	0.067404866
124	0xbd3d533d	-0.04622196
125	0xbd1c9ac7	-0.038233545
126	0xbe5bd9da	-0.21469823
127	0x3e05fce9	0.13084759
128	0xbdf71a90	-0.12065613
129	0xbd0b0736	-0.033942424
130	0xbc68f420	-0.01421836
131	0xbdb439bd	-0.08800075
132	0x3d6d2cfd	0.057904232
133	0x3db2b5fe	0.087261185
134	0x3ca369bf	0.019947885
135	0x3cdca463	0.026933854
136	0xbe12e09c	-0.14343494
137	0xbc805df4	-0.0156698
138	0xbd2fbb64	-0.04290332
139	0x3cb1bffe	0.021697994
140	0x3daa0951	0.08302558
141	0x3d3eb3c9	0.046558175
142	0xbd81b736	-0.06333773
143	0x3ba2409d	0.00495155
144	0xbcfa82e1	-0.030579986
145	0x3de71647	0.11283546
146	0xbd2a9584	-0.041646495
147	0xbd714ad2	-0.058909245
148	0xbcd50d5f	-0.026007352
149	0x3d3f42f6	0.04669472
150	0x3e0bdce5	0.13658483
151	0xbde41760	-0.11137271
152	0x3de43e3a	0.11144681
153	0xbe37a36b	-0.17933433
154	0x3e01619b	0.1263489
155	0xbe4a54b1	-0.1975887
156	0x3de6dba2	0.112723604
157	0xbe0488b0	-0.12942767
158	0xbddef593	-0.10886683
159	0x3d2cad0d	0.04215722
160	0x3e6052ea	0.21906629
161	0xbe03017a	-0.12793532
162	0xbdf5bdfc	-0.11999127
163	0xbcc8e0c6	-0.024521243
164	0x3e03cfbb	0.12872212
165	0x3d5b2e7e	0.053511135
166	0xbb62a783	-0.0034584708
167	0xbd687184	-0.056748882
168	0x3b09c622	0.0021022637
169	0xbe0db185	-0.1383725
170	0xbdaca798	-0.084304035
171	0x3ce5e4b0	0.028063148
172	0x3d163739	0.03667376
173	0xbd561345	-0.05226447
174	0xbda46f39	-0.080290265
175	0xbdf6e519	-0.12055416
176	0x3db0099f	0.08595585
177	0x3decf273	0.11569681
178	0xbcf1403a	-0.02944957
179	0xbc893f99	-0.016753959
180	0x3d4eb70d	0.05046754
181	0xbd3ee58c	-0.04660563
182	0x3e161752	0.14657333
183	0x3e800394	0.2500273
184	0x3d805b5d	0.06267426
185	0xbe1f6172	-0.15564516
186	0x3dd7b7d0	0.10533106
187	0xbdc40fbe	-0.09573315
188	0xbcbac417	-0.022798581
189	0x3d919f88	0.07110506
190	0xbdc05785	-0.09391693
191	0xbd09ccd1	-0.033642594
192	0x3e58752d	0.21138449
193	0xbda529db	-0.08064624
194	0xbcec6fa1	-0.028861823
195	0x3de17a94	0.11009708
196	0xbdd64002	-0.10461427
197	0x3d6290bb	0.055313807
198	0xbe4dedde	-0.2011027
199	0x3ddb8780	0.10719204
200	0x3da1842c	0.07886538
201	0xbdf97867	-0.12181168
202	0xbe259a74	-0.161722
203	0x3e16f48e	0.14741728
204	0x3d411472	0.04713864
205	0xbe28dab5	-0.1648968
206	0xbd538748	-0.051642686
207	0x3dd52988	0.10408312
208	0xbdd5b79c	-0.10435411
209	0x3ce164fa	0.02751397
210	0xbdffb3b1	-0.12485445
211	0x3e6f6359	0.23377742
212	0x3c10c0dc	0.008835044
213	0xbe322bea	-0.17399564
214	0xbd83e2e8	-0.06439763
215	0x3e1ef625	0.15523584
216	0xbd08fe9f	-0.03344595
217	0xbdfb4f0b	-0.122709356
218	0xbd480f50	-0.04884273
219	0x3e1cad3a	0.15300456
220	0xbd89c520	-0.06727052
221	0x3e0ad468	0.13557589
222	0x3d3b15d3	0.04567511
223	0xbe2aaf55	-0.16668446
224	0xbdc9fa78	-0.09862226
225	0xbde62af2	-0.1123866
226	0x3de34bf0	0.11098468
227	0xbd0083f7	-0.03137585
228	0xbcda8d1b	-0.026678612
229	0x3d3cbef8	0.04608056
230	0xbd023bb3	-0.031795215
231	0xbda27cd0	-0.07933962
232	0xbd8386a8	-0.06422168
233	0xbdf47f8e	-0.119383916
234	0x3d2964b1	0.041355792
235	0x3dfcfcda	0.12352915
236	0xbdc7d41a	-0.09757252
237	0x3d5b351a	0.05351744
238	0x3e76c8e0	0.24100065
239	0xbd631571	-0.05544037
240	0xbdccf510	-0.100076795
241	0xbc1568eb	-0.009119253
242	0x3ce0a08f	0.02742031
243	0x3d5a5ce6	0.05331125
244	0x3e041014	0.12896758
245	0x3d32bef9	0.043639157
246	0xbd85c7ae	-0.065322265
247	0xbd7d48cb	-0.061837
248	0x3e24040d	0.1601717
249	0x3b853a1b	0.0040657646
250	0x3dce7c9e	0.100823626
251	0x3e58e4c2	0.21181014
252	0xbcc91610	-0.024546653
253	0x3ceaa604	0.028643616
254	0xbcb5d9e9	-0.022198634
255	0xbd24cda3	-0.040235173

layers.0.lin_r.weight f4 [128, 128]
0	0x3d93272e	0.07185207
1	0x3d4ae477	0.049534287
2	0x3e57df06	0.2108117
3	0xbc90e66a	-0.017687995
4	0x3dcdb29c	0.10043833
5	0xbccd6344	-0.025071748
6	0xbe36084e	-0.17776605
7	0xbd30a61d	-0.043127168
8	0xbd6debda	-0.058086254
9	0xbd9a2a33	-0.0752758
10	0x3df8459b	0.12122651
11	0xbd946f2f	-0.07247769
12	0xbdd1ce8f	-0.10244476
13	0xbe5262c5	-0.2054549
14	0xbcebf5b5	-0.028803686
15	0xbe0916bc	-0.13387579
16	0x3c1a9adc	0.009436335
17	0x3c7b58c3	0.015340987
18	0x3da412d6	0.08011405
19	0x3d335f5b	0.04379211
20	0x3da10806	0.078628585
21	0x3cfed91e	0.031109389
22	0x3d8dd756	0.06925838
23	0x3e2580b8	0.16162384
24	0xbdcc23d3	-0.099677704
25	0xbd87a73c	-0.06623694
26	0xbc66f633	-0.014096784
27	0x3e60d9a5	0.21958025
28	0x3d54e39b	0.051974874
29	0xbe3a306d	-0.18182535
30	0xbda95cc0	-0.08269644
31	0xbccec348	-0.025239602
32	0x3c4184c5	0.01181144
33	0x3cf1ea33	0.02953062
34	0xbe06a29a	-0.13147965
35	0xbd6d590b	-0.057946246
36	0xbe06bb71	-0.1315744
37	0xbe67d345	-0.22639187
38	0xbd7e2699	-0.06204853
39	0xbc6fa64c	-0.014627051
40	0x3d5a979a	0.053367235
41	0xbd4f824f	-0.05066138
42	0xbdc44db6	-0.09585135
43	0x3dee925f	0.11649012
44	0xbbbe57df	-0.005808815
45	0xbdf1b5ef	-0.11802279
46	0xbd7fa691	-0.06241471
47	0xbe3845aa	-0.17995325
48	0x3db3f350	0.087866426
49	0x3d8fbd38	0.070185125
50	0x3dad52c1	0.0846305
51	0x3e205040	0.15655613
52	0x3d307a5b	0.043085437
53	0xbe00924b	-0.12555806
54	0x3e17ff53	0.14843492
55	0x3d97fefa	0.0742168
56	0x3e2d0744	0.16897303
57	0x3d7862a3	0.060640942
58	0x3d67046f	0.056400713
59	0xbe080f5f	-0.13287114
60	0xbe10515c	-0.14093536
61	0x3e078b42	0.13236716
62	0xbe1f468b	-0.15554254
63	0x3c524e7b	0.012836094
64	0x3d3c3211	0.045946185
65	0x3e3d72a7	0.18500768
66	0xbd9aff31	-0.07568205
67	0x3d419d9a	0.04726944
68	0x3cd6ef6b	0.02623721
69	0xbdcda18b	-0.100405775
70	0xbdd53090	-0.10409653
71	0xbe123845	-0.14279278
72	0xbceba484	-0.02876497
73	0xbe1bf6f7	-0.15230928
74	0x3e6ae0c9	0.22937311
75	0xbd9cc44e	-0.0765463
76	0x3e1ce650	0.15322232
77	0xbd4b2266	-0.04959335
78	0xbd8ea2ea	-0.06964667
79	0xbcb9a22d	-0.02266034
80	0x3dcff793	0.10154643
81	0xbd8d5319	-0.06900615
82	0x3d8228e6	0.06355457
83	0x3d38c0cb	0.045105737
84	0x3d21190b	0.039330523
85	0x3e811731	0.25213006
86	0x3e088396	0.13331446
87	0x3d1bbbf6	0.03802105
88	0xbe29a34c	-0.16566199
89	0xbe056361	-0.13026191
90	0xbe49326a	-0.19648138
91	0xbc4883c1	-0.012238444
92	0x3e36c6ef	0.17849325
93	0x3e08d606	0.13362893
94	0xbdcc2147	-0.09967285
95	0xbdcfa675	-0.10139171
96	0xbe4be604	-0.19911963
97	0xbd9606a3	-0.073254846
98	0x3e3835e4	0.17989308
99	0x3e61a22e	0.22034523
100	0xbdcac436	-0.099007055
101	0xbe1ddad1	-0.15415503
102	0x3d99ca73	0.07509317
103	0xbd9c9b03	-0.07646754
104	0x3db27397	0.08713453
105	0x3bcdf45f	0.006285235
106	0xbd52a070	-0.051422536
107	0xbc7ec260	-0.015549272
108	0x3e0d8a7b	0.13822357
109	0x3d2d19e8	0.042261034
110	0xbd9c79a9	-0.07640392
111	0x3de092ea	0.10965522
112	0x3da89bd7	0.08232849
113	0x3da2b775	0.07945148
114	0x3dca69e0	0.09883475
115	0x3df402d7	0.11914604
116	0xbe632dff	-0.22185515
117	0xbd12433a	-0.035708643
118	0x3e8468b0	0.2586112
119	0x3d3ae142	0.04562498
120	0x3e01ab8c	0.12663096
121	0x3e239c37	0.1597756
122	0xbdc8bd00	-0.09801674
123	0x3d8a0b90	0.067404866
124	0xbd3d533d	-0.04622196
125	0xbd1c9ac7	-0.038233545
126	0xbe5bd9da	-0.21469823
127	0x3e05fce9	0.13084759
128	0xbdf71a90	-0.12065613
129	0xbd0b0736	-0.033942424
130	0xbc68f420	-0.01421836
131	0xbdb439bd	-0.08800075
132	0x3d6d2cfd	0.057904232
133	0x3db2b5fe	0.087261185
134	0x3ca369bf	0.019947885
135	0x3cdca463	0.026933854
136	0xbe12e09c	-0.14343494
137	0xbc805df4	-0.0156698
138	0xbd2fbb64	-0.04290332
139	0x3cb1bffe	0.021697994
140	0x3daa0951	0.08302558
141	0x3d3eb3c9	0.046558175
142	0xbd81b736	-0.06333773
143	0x3ba2409d	0.00495155
144	0xbcfa82e1	-0.030579986
145	0x3de71647	0.11283546
146	0xbd2a9584	-0.041646495
147	0xbd714ad2	-0.058909245
148	0xbcd50d5f	-0.026007352
149	0x3d3f42f6	0.04669472
150	0x3e0bdce5	0.13658483
151	0xbde41760	-0.11137271
152	0x3de43e3a	0.11144681
153	0xbe37a36b	-0.17933433
154	0x3e01619b	0.1263489
155	0xbe4a54b1	-0.1975887
156	0x3de6dba2	0.112723604
157	0xbe0488b0	-0.12942767
158	0xbddef593	-0.10886683
159	0x3d2cad0d	0.04215722
160	0x3e6052ea	0.21906629
161	0xbe03017a	-0.12793532
162	0xbdf5bdfc	-0.11999127
163	0xbcc8e0c6	-0.024521243
164	0x3e03cfbb	0.12872212
165	0x3d5b2e7e	0.053511135
166	0xbb62a783	-0.0034584708
167	0xbd687184	-0.056748882
168	0x3b09c622	0.0021022637
169	0xbe0db185	-0.1383725
170	0xbdaca798	-0.084304035
171	0x3ce5e4b0	0.028063148
172	0x3d163739	0.03667376
173	0xbd561345	-0.05226447
174	0xbda46f39	-0.080290265
175	0xbdf6e519	-0.12055416
176	0x3db0099f	0.08595585
177	0x3decf273	0.11569681
178	0xbcf1403a	-0.02944957
179	0xbc893f99	-0.016753959
180	0x3d4eb70d	0.05046754
181	0xbd3ee58c	-0.04660563
182	0x3e161752	0.14657333
183	0x3e800394	0.2500273
184	0x3d805b5d	0.06267426
185	0xbe1f6172	-0.15564516
186	0x3dd7b7d0	0.10533106
187	0xbdc40fbe	-0.09573315
188	0xbcbac417	-0.022798581
189	0x3d919f88	0.07110506
190	0xbdc05785	-0.09391693
191	0xbd09ccd1	-0.033642594
192	0x3e58752d	0.21138449
193	0xbda529db	-0.08064624
194	0xbcec6fa1	-0.028861823
195	0x3de17a94	0.11009708
196	0xbdd64002	-0.10461427
197	0x3d6290bb	0.055313807
198	0xbe4dedde	-0.2011027
199	0x3ddb8780	0.10719204
200	0x3da1842c	0.07886538
201	0xbdf97867	-0.12181168
202	0xbe259a74	-0.161722
203	0x3e16f48e	0.14741728
204	0x3d411472	0.04713864
205	0xbe28dab5	-0.1648968
206	0xbd538748	-0.051642686
207	0x3dd52988	0.10408312
208	0xbdd5b79c	-0.10435411
209	0x3ce164fa	0.02751397
210	0xbdffb3b1	-0.12485445
211	0x3e6f6359	0.23377742
212	0x3c10c0dc	0.008835044
213	0xbe322bea	-0.17399564
214	0xbd83e2e8	-0.06439763
215	0x3e1ef625	0.15523584
216	0xbd08fe9f	-0.03344595
217	0xbdfb4f0b	-0.122709356
218	0xbd480f50	-0.04884273
219	0x3e1cad3a	0.15300456
220	0xbd89c520	-0.06727052
221	0x3e0ad468	0.13557589
222	0x3d3b15d3	0.04567511
223	0xbe2aaf55	-0.16668446
224	0xbdc9fa78	-0.09862226
225	0xbde62af2	-0.1123866
226	0x3de34bf0	0.11098468
227	0xbd0083f7	-0.03137585
228	0xbcda8d1b	-0.026678612
229	0x3d3cbef8	0.04608056
230	0xbd023bb3	-0.031795215
231	0xbda27cd0	-0.07933962
232	0xbd8386a8	-0.06422168
233	0xbdf47f8e	-0.119383916
234	0x3d2964b1	0.041355792
235	0x3dfcfcda	0.12352915
236	0xbdc7d41a	-0.09757252
237	0x3d5b351a	0.05351744
238	0x3e76c8e0	0.24100065
239	0xbd631571	-0.05544037
240	0xbdccf510	-0.100076795
241	0xbc1568eb	-0.009119253
242	0x3ce0a08f	0.02742031
243	0x3d5a5ce6	0.05331125
244	0x3e041014	0.12896758
245	0x3d32bef9	0.043639157
246	0xbd85c7ae	-0.065322265
247	0xbd7d48cb	-0.061837
248	0x3e24040d	0.1601717
249	0x3b853a1b	0.0040657646
250	0x3dce7c9e	0.100823626
251	0x3e58e4c2	0.21181014
252	0xbcc91610	-0.024546653
253	0x3ceaa604	0.028643616
254	0xbcb5d9e9	-0.022198634
255	0xbd24cda3	-0.040235173

out_layer.weight f4 [10, 128]
0	0xbc988644	-0.01861871
1	0x3d05b271	0.032640878
2	0xbde0611e	-0.10956024
3	0xbd8d3907	-0.06895643
4	0x3cf50a29	0.029912071
5	0x3dc09c66	0.09404831
6	0xbdead523	-0.11466434
7	0xbd90a9c1	-0.07063628
8	0x3a374f6c	0.0006992731
9	0xbda7ac5b	-0.08187171
10	0xbda9bc05	-0.08287815
11	0xbca439e3	-0.020047134
12	0xbe008cf9	-0.12553777
13	0x3de63e06	0.11242299
14	0xbd16e268	-0.03683701
15	0x3d53dff9	0.05172727
16	0x3d0d8239	0.034548018
17	0x3c21a658	0.00986632
18	0xbd779d51	-0.060452763
19	0xbe06f933	-0.13181
20	0x3dc56329	0.09638054
21	0xbcf101aa	-0.029419739
22	0x3de23086	0.11044411
23	0x3e067f70	0.13134551
24	0x3bb5fa75	0.0055535384
25	0x3d8af00f	0.06784069
26	0x3c903d57	0.017607374
27	0x3de0b28e	0.109715566
28	0xbd8c5da8	-0.06853801
29	0x3d95047f	0.07276248
30	0xbd982686	-0.07429223
31	0xbd542e1e	-0.051801793
32	0x3d2f421f	0.042787667
33	0x3dc5394f	0.09630071
34	0xbca53b44	-0.020169862
35	0x3d24936d	0.04017966
36	0xbc85fbf1	-0.016355487
37	0x3e047083	0.12933545
38	0xbc215116	-0.009845993
39	0xbd95f32d	-0.07321773
40	0xbd5fcb33	-0.054637145
41	0x3d4daedf	0.0502156
42	0xbccd0a4e	-0.025029328
43	0xbdc885a9	-0.09791119
44	0x3a26e1d1	0.0006366047
45	0xbc66d989	-0.01408995
46	0x3ccd8644	0.025088437
47	0xbd1d9481	-0.038471702
48	0x3aa83f89	0.0012836318
49	0x3cda4722	0.026645247
50	0xbe3002fb	-0.17188637
51	0x3d9c2193	0.07623591
52	0xbe0040f3	-0.12524776
53	0xbdb3b3b3	-0.08774509
54	0x3da19ed6	0.07891624
55	0x3c0fd175	0.008777966
56	0xbd259b2f	-0.040431198
57	0xbdd973e5	-0.10617808
58	0xbd82db8d	-0.06389532
59	0x3e15fe2e	0.14647743
60	0xbd4664c4	-0.04843594
61	0x3e223749	0.15841402
62	0xbd72d015	-0.059280474
63	0x3df7d361	0.12100864
64	0xbc3eacd4	-0.011637885
65	0xbdf37b41	-0.11888743
66	0x3d61f2e0	0.055163264
67	0xbdc0bccf	-0.094110124
68	0x3c3f2b69	0.011668065
69	0xbd783536	-0.06059762
70	0xbccf16c3	-0.025279408
71	0x3e016df9	0.12639607
72	0xbd972a69	-0.07381136
73	0xbda90bec	-0.08254227
74	0xba9e2b4d	-0.0012067348
75	0xbdb70eea	-0.089383915
76	0x3dce7128	0.100801766
77	0x3d9d67aa	0.07685788
78	0xbb82ec6f	-0.0039954702
79	0xbd49fbf4	-0.049312547
80	0x3d98593e	0.074388966
81	0xbcd10f70	-0.025520056
82	0x3c337092	0.010952132
83	0x3e1e5d2f	0.15465234
84	0xbd7c51ab	-0.061601322
85	0xbdcf17a3	-0.1011193
86	0xbc252165	-0.010078763
87	0x3d5b4c1c	0.05353938
88	0xbdc62ae2	-0.09676148
89	0xbd39cdfd	-0.04536246
90	0xbdbfafee	-0.09359728
91	0xbd4ca0a9	-0.049957905
92	0x3e11c79e	0.14236304
93	0xbdb7240c	-0.08942422
94	0xbde997f8	-0.11405939
95	0xbcaa94f5	-0.020822981
96	0x3d9749f4	0.07387152
97	0x3d964255	0.073368706
98	0x3da23ede	0.07922147
99	0xbe27c4ae	-0.16383621
100	0x3ddc56a7	0.10758715
101	0xbd546181	-0.0518508
102	0xbc0888ff	-0.008333444
103	0xba9dcc64	-0.0012039063
104	0xbda3021d	-0.079593875
105	0x3dcbebbd	0.09957073
106	0xbdfae472	-0.12250604
107	0x3da2e325	0.07953481
108	0xbb4d3db1	-0.0031317289
109	0x3e0dea34	0.13858873
110	0x3d41725b	0.0472282
111	0xbbcdc2da	-0.0062793316
112	0x3c8eef35	0.017448047
113	0x3debaa95	0.11507145
114	0xbd9247df	-0.071426146
115	0x3dd1f956	0.10252635
116	0xba1711a4	-0.00057628215
117	0x3dc2210b	0.09478959
118	0xbdaa9816	-0.08329789
119	0x3cef1bab	0.029187998
120	0xbc5f8028	-0.013641395
121	0xbd11c289	-0.035585914
122	0x3d59a12d	0.053132225
123	0xbe279f78	-0.16369426
124	0x3e042013	0.1290286
125	0x3d4e4775	0.050361115
126	0xbcccff46	-0.025024068
127	0x3d8d6e32	0.06905784
128	0x3d752f89	0.059859786
129	0xbda7b8e4	-0.08189562
130	0xbe0e34f7	-0.13887392
131	0xbe0183e6	-0.12647972
132	0x3e2bfddc	0.16796058
133	0x3d93c20b	0.07214745
134	0xbc3d36f8	-0.01154875
135	0xbe084169	-0.13306202
136	0xbe10d89d	-0.14145131
137	0x3e146177	0.14490305
138	0xbd945375	-0.07242481
139	0xbdb26638	-0.08710903
140	0xbe098a71	-0.13431717
141	0x3c03f76b	0.0080545945
142	0x3c52fb8e	0.012877358
143	0xbe26af4f	-0.16277812
144	0x3e133db7	0.14379011
145	0x3dd327d5	0.10310332
146	0xbd95a118	-0.07306117
147	0x3e19ab87	0.15006839
148	0xbce0eabc	-0.02745568
149	0xbd935982	-0.07194807
150	0x3e12b0bc	0.14325231
151	0xbe07bf8d	-0.13256665
152	0x3c961a5b	0.018323114
153	0x3d9aee9b	0.07565042
154	0xbcaf10f3	-0.021370387
155	0x3e37a2b0	0.17933154
156	0x3dfde07d	0.12396333
157	0xbe0ed3a9	-0.1394793
158	0xbe02735a	-0.12739316
159	0x3e400ab8	0.18754089
160	0xbe050175	-0.12988837
161	0xbbc93529	-0.0061403704
162	0xbd2d44f3	-0.042302083
163	0xbe17fb1e	-0.14841887
164	0xbdbe4d91	-0.09292138
165	0x3d987bbd	0.07445476
166	0xbd9aa51b	-0.075510226
167	0x3e01f445	0.12690838
168	0xbd7cbbb0	-0.06170243
169	0x3dbe518c	0.092928976
170	0x3dd4c492	0.10389055
171	0xbbb4acf0	-0.00551378
172	0xb9da04a6	-0.00041583664
173	0x3dcdbfce	0.100463495
174	0x3b654f2b	0.0034989815
175	0x3dcc5fdd	0.09979222
176	0x3e255f6d	0.16149683
177	0x3d9ddf9c	0.07708666
178	0xbe226948	-0.15860474
179	0xbd4b7aca	-0.049677648
180	0xbdf15021	-0.117828615
181	0x3df4618e	0.119326696
182	0xbdbf765a	-0.09348746
183	0xbdabf0f8	-0.083955705
184	0x3c8bf119	0.017082738
185	0xbe2d0ded	-0.16899844
186	0x3d02421c	0.031801328
187	0x3d207300	0.039172173
188	0xbe099a19	-0.1343769
189	0xbdf330c4	-0.11874536
190	0xbd093080	-0.03349352
191	0xbcc8fbc5	-0.024534116
192	0xbccaefe5	-0.024772594
193	0xbda1a340	-0.078924656
194	0xbcf27995	-0.02959899
195	0xbde4b76c	-0.111677974
196	0x3db6c021	0.089233644
197	0x3d43f7c6	0.047843717
198	0x3dd38290	0.10327637
199	0xbe198bf0	-0.14994788
200	0x3d838035	0.06420938
201	0xbdf8fd0b	-0.12157639
202	0xbcafe9cb	-0.021473786
203	0x3e16ee3c	0.14739317
204	0xbdc68aaa	-0.09694417
205	0xbdc937b4	-0.09825078
206	0x3d05d82f	0.032676872
207	0xbdb8d255	-0.09024493
208	0x3e037574	0.12837774
209	0xbdbd4e56	-0.09243457
210	0xbe04b116	-0.12958178
211	0xbba885d3	-0.005142906
212	0x3cfd87c1	0.030948522
213	0x3e221f0f	0.1583216
214	0xbca52bd3	-0.020162499
215	0xbe14d921	-0.14535953
216	0x3da2ada4	0.079432756
217	0x3e3216d5	0.17391522
218	0xbcd25365	-0.025674531
219	0x3dcec358	0.100958526
220	0xbd50a071	-0.05093426
221	0xbd9ab716	-0.07554452
222	0xbda9b415	-0.08286301
223	0xbe16a418	-0.14711034
224	0xbdd65ac3	-0.1046653
225	0xbdf35c8c	-0.11882886
226	0x3d30b325	0.043139596
227	0x3e2adb32	0.16685179
228	0x39d5576c	0.0004069166
229	0xbe22a5dc	-0.15883583
230	0x3d7ed899	0.062218282
231	0x3e19b5ac	0.15010709
232	0xbdf7d91b	-0.121019565
233	0xbe0889a6	-0.13333759
234	0x3e0ed650	0.13948941
235	0xbddab5e1	-0.10679222
236	0x3d41b83b	0.047294836
237	0x3aac7e85	0.0013160264
238	0x3c998875	0.018741826
239	0x3ceab01f	0.028648434
240	0xbda8b436	-0.082374975
241	0x3de2b766	0.11070137
242	0xbdb6cddf	-0.089259855
243	0xbd40673b	-0.04697345
244	0xbd90eded	-0.07076631
245	0x3dd58112	0.10425009
246	0x3e26d89d	0.16293569
247	0x3db9e422	0.09076716
248	0xbd97a515	-0.07404534
249	0xbd98c0ce	-0.074586496
250	0xbe18bebb	-0.14916508
251	0xbdeced0a	-0.11568649
252	0xbc727aea	-0.014799813
253	0x3e1c5af5	0.15269072
254	0x3e48b4c1	0.19600202
255	0xbdbaa94a	-0.091143206
